aliyunwei/src/gate_0.pt (torch, 297668 bytes, 11 tensors)

weight f4 [2617, 12]
000000 00 00 00 00 00 00 00 00 00 00 00 00 00 00 00 00
       0.0 0.0 0.0 0.0
000010 00 00 00 00 00 00 00 00 00 00 00 00 00 00 00 00
       0.0 0.0 0.0 0.0
000020 00 00 00 00 00 00 00 00 00 00 00 00 00 00 00 00
       0.0 0.0 0.0 0.0
000030 33 fe 32 bf be 92 09 bf e0 11 3d bf 84 7c 3b 3f
       -0.6991913 -0.53739536 -0.738554 0.7323687
000040 e0 ed c9 3f a4 fa 1c be a8 a0 f4 be 3d 34 d8 3e
       1.5775719 -0.15329987 -0.4777882 0.42227355
000050 d0 6e 3a bf a8 93 84 3f 6c ec 44 3f bf a3 ce 3f
       -0.72825336 1.0357561 0.7692325 1.6143721
000060 c5 7b 95 3f 90 28 91 3f 00 10 82 3e ff 56 b2 3f
       1.1678396 1.1340504 0.25402832 1.3932799
000070 c8 77 be be 3f c0 9f be fb 9a 94 be df a8 68 3f
       -0.3720076 -0.3120136 -0.2902449 0.90882677
000080 36 95 95 bf 50 49 06 bf f3 0e ff be 85 da ea 3f
       -1.168616 -0.52455616 -0.49816093 1.8347937
000090 b3 d2 9c 3e 7a c8 d0 be 30 5b 96 3e 9e 79 3e bf
       0.306295 -0.4077795 0.29366446 -0.74404323
0000a0 3a 83 bf bf 76 d5 74 3f e9 59 58 bf 07 d2 13 bf
       -1.4961922 0.95638216 -0.8451219 -0.5774235
0000b0 e7 a7 9c bf 02 81 02 40 38 ce 97 bf 4e f7 ef be
       -1.223874 2.039124 -1.1859808 -0.46868366
0000c0 80 b7 60 bf e5 d8 21 bf bf 7d 99 3d e7 4b 01 3f
       -0.8778 -0.6322158 0.07494687 0.5050644
0000d0 33 01 f0 be 25 7d 92 3f 6b 2b 48 bf 6f fb 34 bf
       -0.46875915 1.1444441 -0.7819125 -0.7069616
0000e0 94 88 ac bf c5 a6 0d 3d 78 c2 79 bd fa 22 26 3f
       -1.347918 0.034582872 -0.060976475 0.6489712
0000f0 fb 84 0d bf 39 df a9 3f be 9e 82 bf 64 f4 b4 3f
       -0.5528104 1.3271247 -1.0204694 1.4137082
000100 fa 54 3d 3f f4 8b 20 3f 21 01 1e 40 7e 51 0d 3f
       0.7395779 0.6271355 2.468819 0.5520247
000110 f2 8d 53 3e fc ad 83 3e 1e 82 de bf 89 9d 6c 3f
       0.20659617 0.25718677 -1.7383459 0.9242788
000120 2c 5e 29 be fc ce 00 3f 1d c8 5e 3d 6f a9 d1 3e
       -0.1653983 0.50315833 0.05439006 0.4094958
000130 5a 65 0d 3f f0 cd 1d bf 45 a3 07 c0 6f a0 38 bf
       0.55232775 -0.6164236 -2.1193402 -0.721198
000140 f2 0c 2b 3c 36 99 a6 be 6f d9 a4 bf 6f f3 0f bf
       0.010440098 -0.32538766 -1.2878855 -0.56230825
000150 3e b2 f9 3e 58 d7 30 3f 46 de a9 3f 6c 12 07 3f
       0.487688 0.6907859 1.3270957 0.52762485
000160 82 2c d3 3e 87 be 82 be 29 ba a4 bf 74 11 8a 3e
       0.41244894 -0.25535986 -1.2869312 0.2696644
000170 d1 fe fc bf 24 87 68 bf 3a ae b5 3f a6 8d f2 3d
       -1.9765264 -0.9083121 1.4193795 0.118434235
000180 50 47 1a c0 62 02 f0 3e d1 ee 40 3f 90 6e e1 3c
       -2.4106026 0.46876818 0.75364405 0.02751854
000190 cb 90 1d 3f a1 6d 0f 3f 9b 2f 83 3f 95 64 dd be
       0.6154906 0.56026655 1.0248903 -0.432408
0001a0 6b 3c 36 be 8c 1c 39 3f 11 10 c7 3e 8e 8a 2f 3e
       -0.17796485 0.72309184 0.38879445 0.17142698
0001b0 74 49 82 3e 5f 89 9c 3f e6 0c a5 ba b1 51 95 be
       0.25446665 1.2229422 -0.0012592345 -0.29163888
0001c0 57 26 b3 bf c9 53 c9 bd 16 56 13 bf e4 a0 ea 3e
       -1.3996075 -0.09830434 -0.5755323 0.45825875
0001d0 2f 92 32 3f bc 52 b3 3d b0 59 bf be f9 d0 01 3f
       0.6975431 0.08756015 -0.37373114 0.5070949
0001e0 aa 91 d3 3d 00 2f 23 3f 94 22 08 3c bc 7e 6a 3f
       0.103305176 0.6374359 0.008309025 0.9159963
0001f0 66 49 85 3f 97 7d bd 3e 8c bf a3 3e 62 e1 9f 3e
       1.0413024 0.3700988 0.31982076 0.3122664
000200 14 04 e5 3f 03 ea 52 3f fc 50 a9 bf 1f 42 83 bf
       1.789187 0.82388324 -1.322784 -1.0254554
000210 39 cf 05 be 03 16 c9 3f f5 01 21 3f 56 a3 0d 3f
       -0.1306733 1.5709842 0.6289361 0.55327356
000220 90 5b 8c 3f 48 16 92 3c 3a 09 de bf c6 92 63 3f
       1.0965443 0.01783289 -1.7346566 0.88895833
000230 2f 99 b8 be bd 0a 7e 3f 15 d9 28 bf 92 97 1c 3f
       -0.3605437 0.99235135 -0.6595624 0.6116878
000240 3b 46 5c bf 9c 51 92 3f 2b 83 03 40 25 33 bf 3f
       -0.86044663 1.1431155 2.0548809 1.4937483
000250 81 a2 ed bd 6b 0e d7 3d a1 6e 48 bf 0f bf a0 be
       -0.11603261 0.10500797 -0.78293806 -0.31395766
000260 49 da df bd 0f 02 22 3f 65 d3 42 be 34 31 85 3f
       -0.109303065 0.6328439 -0.19025953 1.0405641
000270 9a 79 18 c0 c3 59 cd be dc fd 92 bf d7 c1 47 3f
       -2.382422 -0.40107545 -1.1483722 0.7803015
000280 88 ae e9 bf 23 d6 60 3e 86 9f c3 3c dc 24 aa be
       -1.8256388 0.21956687 0.023879778 -0.33231246
000290 82 12 8d 3e ac b9 33 bf bf f4 2b 3e 77 82 86 bf
       0.27553183 -0.7020519 0.16792582 -1.0508565
0002a0 c7 4d d9 bf 6a ea bd 3f 70 d4 cd 3f d6 bb 20 3e
       -1.6976861 1.4837162 1.6080456 0.15696654
0002b0 01 48 e4 bf 86 1a 87 3f 93 3a 3b 3f 83 a7 dd 3f
       -1.7834474 1.0554969 0.7313625 1.7316746
0002c0 ee 76 82 be 94 9d a0 3d 97 f3 63 bf a8 85 cf be
       -0.2548136 0.07842556 -0.89043564 -0.4053166
0002d0 3a 2c 65 bf 6a 9e c3 bf 74 ac 8b bf b9 84 00 bf
       -0.8952061 -1.5282719 -1.0912004 -0.5020252
0002e0 12 24 ff be f9 95 b8 bf c8 e3 ec bf 16 84 fb 3d
       -0.49832207 -1.4420768 -1.8507013 0.12281053
0002f0 a0 8a 7b 3f 5c ad 08 bf 4a 30 2d 3f 22 90 2e 3f
       0.982584 -0.53389525 0.6765181 0.6818868
000300 45 78 c7 3f 20 49 2b bf b1 99 a9 3f 26 89 f5 3e
       1.5583578 -0.66908455 1.3250028 0.47956198
000310 05 ba be bf 89 77 5b 3f b3 6e 94 3e 97 58 5d 3f
       -1.4900519 0.8572927 0.28990707 0.864633
000320 28 ff 7d bc 28 4f 0e 40 94 6f 16 bf ae 80 99 bf
       -0.0155027285 2.2235813 -0.58764005 -1.1992395
000330 7e 21 36 3e 86 67 83 3f e5 a4 a0 3f c7 27 e2 3e
       0.17786214 1.0265968 1.2550322 0.44170973
000340 84 52 48 bf 2f 21 7b bf 62 6a f3 be ec a3 11 bf
       -0.7825091 -0.9809751 -0.475421 -0.5689075
000350 45 ca 17 3e fc c6 d8 3e a8 dd 11 be 5e 88 0e c0
       0.14823253 0.42339313 -0.14244711 -2.2270732
000360 f9 b9 f9 be 03 d8 aa 3f d0 9f 90 bf 59 50 f7 3f
       -0.48774698 1.3347172 -1.1298771 1.9321395
000370 20 aa 0b 37 10 73 2a bd 3c 71 80 3f e9 ea 98 3f
       8.324656e-06 -0.04161364 1.0034556 1.1946689
000380 09 0d 1d bf fb 33 cb 3f c2 8c 0f 3e 27 e7 c6 bf
       -0.61348015 1.5875238 0.14018539 -1.5539292
000390 be 53 87 bf c3 db 36 bd 71 76 18 3f d9 94 1e 40
       -1.0572431 -0.044643175 0.5955573 2.477835
0003a0 f6 d2 47 bf 03 d1 49 bf b8 e7 f7 bf 53 4b ba bf
       -0.78056276 -0.7883455 -1.936759 -1.4554237
0003b0 43 b9 f1 be 23 0e 80 3e 9b b4 5d bd c4 65 da 3c
       -0.47211656 0.25010785 -0.054127317 0.026659854
0003c0 96 7c 64 bf e0 d4 87 3e b0 81 04 bf a3 81 e3 3e
       -0.89252603 0.26529598 -0.5176039 0.44434842
0003d0 59 67 56 bf e0 66 d5 bc 3e bc ad be cb fd b3 3f
       -0.83751446 -0.026050031 -0.3393268 1.4061826
0003e0 64 5c 9a 3f bb cf 2f bf f8 fd 51 3f 4d 4d fc 3e
       1.2059445 -0.68676347 0.8202815 0.49277726
0003f0 4d f9 48 3e 0b 66 db 3d bb 73 43 3f d1 50 03 3f
       0.1962635 0.107128225 0.76348466 0.5129519

weight f4 [2617, 6]
000000 00 00 00 00 00 00 00 00 00 00 00 00 00 00 00 00
       0.0 0.0 0.0 0.0
000010 00 00 00 00 00 00 00 00 91 6a ea 3f 19 12 8e 3f
       0.0 0.0 1.8313771 1.1099273
000020 65 34 be 3f 7e 91 fa be 84 c6 4a bf ac c8 00 c0
       1.485974 -0.48939127 -0.7920916 -2.012248
000030 22 9c 9e 3e a4 6d 84 3e 92 23 b5 ba 61 7a f3 be
       0.30978495 0.258649 -0.0013819805 -0.47554305
000040 8d bd a3 bf 4b 87 6f bf 9e 4e e4 3e 37 f6 07 bf
       -1.2792221 -0.93565816 0.4459123 -0.5311007
000050 83 2e db 3f e1 4a 1f 3f 6c 86 14 3f 3e 08 dd bd
       1.7123569 0.6222363 0.5801761 -0.10792588
000060 fe 2a 17 3e 52 37 24 3e 7d d5 2f 40 6d 3d 82 bf
       0.14762494 0.16036728 2.7474053 -1.0174996
000070 42 32 37 3f d5 ae 95 3c a7 9f 2c 3e 1a 24 69 3f
       0.7156106 0.018271843 0.16857778 0.9107071
000080 4e ea 33 bf a2 5c 58 3f 96 4d a3 3d 9a 75 c9 3e
       -0.70279396 0.84516346 0.07973783 0.39347535
000090 3f 67 af 3e 3d 0c 86 3f 43 29 c4 3e 6c 94 9f bf
       0.34258458 1.0472485 0.3831273 -1.246717
0000a0 67 6f b4 3f 18 56 8a 3f 15 28 da be 4f 4c 07 be
       1.4096497 1.0807524 -0.42608705 -0.13212703
0000b0 e9 93 b1 3f bf 16 3c 3f 60 6c a1 3f 5d 38 4e bf
       1.3873264 0.7347221 1.2611198 -0.80554754
0000c0 7f 15 b3 3f 30 53 ec 3f ae b7 d1 bf c8 02 09 3f
       1.3990935 1.8462887 -1.638418 0.5351987
0000d0 91 8d 88 bf 78 a7 45 40 4a c2 33 bf 01 c7 13 3d
       -1.0668203 3.0883465 -0.70218337 0.036078457
0000e0 aa 62 ca be db 31 a5 bd 31 d0 c1 bf 31 cd 15 3f
       -0.395284 -0.0806615 -1.514166 0.5851622
0000f0 9f bd bd 3f b0 cd 84 3e ca 04 8b 3e 9c f3 18 3f
       1.4823493 0.25938177 0.2715209 0.5974672
000100 55 46 02 40 cb 8a 1b 3e 35 bb f8 bf 37 b9 a4 3f
       2.0355427 0.15189664 -1.9432131 1.2869023
000110 e6 90 7e bf ee 23 1b 3e 4c 3a 75 3e 67 63 33 3f
       -0.9943985 0.15150425 0.2394802 0.7007355
000120 36 49 a2 3f 9f a2 86 3f 9c 5c 19 be 2e 09 e0 be
       1.2678592 1.0518378 -0.14976734 -0.43757004
000130 3b ed c8 3d e0 ea b3 bf 0f 39 00 c0 2e 02 3a 3e
       0.09810873 -1.4056053 -2.0034826 0.18164894
000140 ad e5 aa 3f d1 61 1a 3f bd 9e 0c 3f d7 14 78 bf
       1.3351341 0.60305506 0.54929715 -0.969068
000150 62 48 02 bc 10 af 36 bf 72 92 90 be a2 96 5e be
       -0.007951828 -0.71360874 -0.2823673 -0.2173715
000160 b0 70 03 c0 d0 8d b2 3f 23 e5 9c 3f c3 e1 47 3f
       -2.053753 1.3949528 1.2257427 0.7807886
000170 28 7d c4 3e 4d a6 3a bf ab 8b 07 3f a8 87 8e 3f
       0.38376737 -0.72910005 0.5294749 1.1135149
000180 e5 c4 02 be 10 6c 08 bf 11 08 b2 be 26 c3 b0 3f
       -0.12770422 -0.5328989 -0.3477178 1.3809555
000190 bd 7e 2d 3f 93 83 41 bf ba f4 a6 bf df 17 78 3e
       0.6777151 -0.7559139 -1.3043435 0.24227856
0001a0 f8 26 28 40 16 62 07 bf 04 93 b6 3e 7f 8c 47 bf
       2.6273785 -0.5288404 0.3565904 -0.77948755
0001b0 5a fe 2e bf 32 1f ed 3d ee ee d0 3f 80 ea 51 bf
       -0.6835686 0.11578216 1.6322916 -0.81998444
0001c0 d2 30 d8 3f 9e 7e 14 bf ae 09 b6 3c b8 3e 9f 3d
       1.6889899 -0.580057 0.022221413 0.077756345
0001d0 90 ac 49 40 5d 46 17 3e e0 6d 45 3e fd 4a bc 3e
       3.1511574 0.14772935 0.19280195 0.36775962
0001e0 45 df 0f be e2 a2 0d be 14 11 b0 bf bf 82 af 3f
       -0.14050014 -0.13831666 -1.3755212 1.3711776
0001f0 e2 12 37 be ca 7a 12 bf 34 28 ee be 96 0e 56 3f
       -0.17878297 -0.5721861 -0.46515048 0.83616006
000200 ea f3 dc bf 86 83 45 bf 96 da 51 3f 9a 70 9e 3e
       -1.7261937 -0.77153814 0.8197416 0.30945283
000210 09 fa 86 bf ce 22 e7 3e e3 29 8e be d9 75 fa be
       -1.0545055 0.4514374 -0.27766332 -0.48918036
000220 78 1c f3 3e fc 37 d2 3f a6 0c f9 3f 2b af 6d 3f
       0.47482657 1.6423335 1.9456985 0.9284541
000230 1a 48 d0 3f 2b f8 a2 bf 86 db d1 bf 30 b2 25 c0
       1.6272004 -1.2731985 -1.6395118 -2.5890007
000240 e7 a8 7c 3f 53 2d a8 3f 29 46 27 bf 11 6e 12 bf
       0.98695225 1.3138832 -0.6534143 -0.571992
000250 e0 a8 55 bf 9b b6 b1 bf 83 a5 ac bf 4d cf 00 3f
       -0.8346081 -1.3883852 -1.348801 0.50316316
000260 62 4b 98 3f 47 8c 6f 3d 33 99 19 bf 25 bd aa 3f
       1.1898005 0.05848339 -0.5999939 1.3338972
000270 60 47 14 3e 71 f2 2a bf 8d e4 48 bf 12 b5 bf 3e
       0.14480352 -0.66776186 -0.7847374 0.37442833
000280 20 ba 0d 3e c7 77 92 bf 51 05 30 3f ba f6 2a bb
       0.13840532 -1.1442803 0.6875811 -0.0026087002
000290 3e d4 31 be 3d ef b6 3e 24 db 68 bf ea b6 d2 3e
       -0.1736612 0.357294 -0.9095938 0.41155177
0002a0 7f 12 85 3f 7a 4c 8d 3b d7 ce 28 bf fa 36 70 3b
       1.039627 0.004312095 -0.6594061 0.0036653862
0002b0 0c 2c 07 bf 1e 5a 5f bf 23 ad 7a 3f c9 1c ed 3f
       -0.52801585 -0.8724688 0.97920436 1.852441
0002c0 1e c1 a6 bf 00 79 90 bf 7f d8 15 bf a8 e0 b5 3e
       -1.3027685 -1.1286926 -0.5853347 0.35522962
0002d0 c8 3b 1f bf 91 a2 91 3f 19 a2 53 bf d6 87 c1 3d
       -0.62200594 1.1377736 -0.82669216 0.09449737
0002e0 bc ad 60 bf ac 61 57 bf 87 ed 0a bf cd cd 8f 3e
       -0.877651 -0.8413341 -0.5426869 0.280867
0002f0 03 86 5c 3f 85 21 4a 3d ce 23 b3 bf 5c bc 02 3f
       0.86141986 0.049348373 -1.3995302 0.51068664
000300 10 f3 18 bd 1e 5a 0e c0 ac d3 b9 be 33 6a 5d 3f
       -0.037341177 -2.2242503 -0.36294305 0.8649017
000310 36 31 f8 bd b8 9d 71 3f e2 2f 88 3e 4a c9 13 3e
       -0.12118761 0.94381285 0.26599032 0.14432254
000320 bf 31 06 3e 83 0a ac 3d 57 9d 10 bf 20 88 94 3f
       0.13104914 0.084004425 -0.5649008 1.1604042
000330 e4 12 d5 bf 16 d4 ea 3e 08 cc 91 3e 35 20 27 3f
       -1.664639 0.45864934 0.28475976 0.6528352
000340 08 4d 4e bf 2d 31 65 40 0b e3 f4 3e d5 c3 43 be
       -0.8058629 3.5811265 0.4782947 -0.19117673
000350 46 23 8f bf 95 ba bb 3d d7 ce 90 3e 50 0e 4b bf
       -1.118264 0.09166447 0.28282806 -0.79318714
000360 cc b9 26 be f7 eb 93 bc 01 f6 37 40 1f c1 5b be
       -0.16281813 -0.018056853 2.87439 -0.21460389
000370 b7 15 35 bf 3b 92 0a 40 39 fa 80 3f 94 d0 a0 3e
       -0.7073626 2.1651752 1.0076362 0.31409132
000380 bc 0e df 3e 1c e5 32 bc 78 e9 df be 82 d3 87 be
       0.4356593 -0.010918882 -0.4373281 -0.26528555
000390 04 47 6e 3f c3 24 4d bf 63 7c 8d bf c0 56 af be
       0.9307711 -0.8013422 -1.1053585 -0.34245872
0003a0 a2 a0 01 40 a6 15 a4 3f 38 50 12 be 92 48 de bf
       2.0254292 1.2819107 -0.14288414 -1.7365897
0003b0 07 0c ba 3e 5a d0 a6 be 30 ec 10 c0 44 57 52 3e
       0.363373 -0.32580835 -2.2644157 0.20541102
0003c0 3b c4 b9 be 9a 63 56 bf 17 8b 4f 3e 1e ee 53 3f
       -0.36282524 -0.8374573 0.20267902 0.82785213
0003d0 7a b4 19 3f a5 cf 08 40 ae 10 49 3f a1 aa 5a be
       0.6004101 2.1376736 0.78541076 -0.21354152
0003e0 3d 48 e5 3d c0 a5 e3 3f 58 67 9c bf 63 03 55 bf
       0.11195419 1.7784958 -1.2219038 -0.8320829
0003f0 7e a8 0f c0 50 a7 ea bf 67 4e 94 bf a4 c7 1f bf
       -2.244659 -1.833231 -1.1586426 -0.62414

weight f4 [2617, 8]
000000 00 00 00 00 00 00 00 00 00 00 00 00 00 00 00 00
       0.0 0.0 0.0 0.0
000010 00 00 00 00 00 00 00 00 00 00 00 00 00 00 00 00
       0.0 0.0 0.0 0.0
000020 4f 45 bc 3c 5e 79 20 c0 68 bb 05 3e 19 46 fb 3e
       0.022982268 -2.5074077 0.13059771 0.49076918
000030 26 bc a4 3f 40 98 b8 bf 41 c7 ac be 52 b2 89 bf
       1.2869918 -1.4421463 -0.3374577 -1.0757544
000040 ad 8f ba bf 14 38 a3 3f 34 76 20 bf c9 38 80 3c
       -1.4575096 1.2751489 -0.62680364 0.015652077
000050 68 b7 a2 3f 3b d4 03 c0 80 d2 12 bc 5a dc fb 3e
       1.2712221 -2.0598285 -0.00896132 0.49191552
000060 53 fa a0 3f 72 06 8d be ca e8 a8 bf af 85 9a 3f
       1.2576393 -0.2754398 -1.3196042 1.2072047
000070 04 06 d2 3e 49 91 14 c0 6d bb 9e 3f ae a5 18 bf
       0.41020215 -2.3213675 1.2400948 -0.5962781
000080 45 b0 61 bf 2c 91 1b 3f 86 a6 ea 3f 9b 92 97 3e
       -0.8815959 0.6076839 1.8332069 0.2960404
000090 2e 64 62 bf 45 13 57 3f b1 bc ab 3f 07 71 ca be
       -0.8843411 0.8401378 1.3416959 -0.39539358
0000a0 f6 3f 3b 3f 7a c0 63 3f e4 90 a5 3e a1 8a 77 3d
       0.7314447 0.8896557 0.32337105 0.06043494
0000b0 05 72 1a be e5 06 0a c0 da fb 9e 3e dd a8 1d bf
       -0.15082557 -2.1566708 0.31051522 -0.6158579
0000c0 16 fb a4 bf f6 92 39 3e 84 a9 60 3f 44 e6 eb 3e
       -1.2889125 0.18122467 0.8775866 0.46074116
0000d0 8a d4 19 3e 5d 1a 9b bf 40 96 8f bf bd 98 8c 3f
       0.15022483 -1.211742 -1.1217728 1.0984112
0000e0 94 8c 89 3e 1f c9 2a 3f 80 29 c7 3e 33 62 b0 3d
       0.26865065 0.66713136 0.3889885 0.0861248
0000f0 3b a8 e3 3d 17 5b 78 3f 6a b0 83 bd e7 be b5 3f
       0.11116072 0.9701399 -0.06430133 1.4198884
000100 c9 77 b7 3e fa b4 dc bf 0f af a9 3f be 11 8d bf
       0.35833576 -1.724273 1.3256549 -1.102104
000110 72 17 9c 3f 66 e3 6d 3f 28 fd cf be d4 01 11 bd
       1.2194655 0.9292511 -0.4062283 -0.035402134
000120 c5 75 88 bf 80 eb b8 bf 67 39 7a bf c1 d2 33 3e
       -1.066094 -1.4446869 -0.9774384 0.17560865
000130 af 14 6b 3e 3c 8d 1b 40 36 95 c5 be c8 c2 81 3f
       0.22957109 2.4304953 -0.385904 1.0137568
000140 87 63 f1 bd f2 33 d5 bf 7c 35 30 be 57 e2 1b bf
       -0.117865615 -1.6656477 -0.17207903 -0.6089224
000150 e4 e5 e2 be 29 09 85 bf e7 99 d3 bf da 94 74 3e
       -0.44316018 -1.039342 -1.6531342 0.23884907
000160 40 5b 75 3f b9 fe 7a 3e 1e 3f d3 3e 6b 93 21 3f
       0.9584236 0.24511231 0.41259092 0.63115567
000170 9f 6c 61 3f 80 ee 8e 3f eb 13 92 bc 93 4c 33 bf
       0.8805637 1.1166534 -0.017831763 -0.7003872
000180 a9 5d 47 be 76 2c 85 be 9b d7 87 be 5c 8a 12 3e
       -0.19469322 -0.26010484 -0.2653168 0.14310592
000190 fe fb 91 bf 15 f7 77 bf f2 ec d2 be 65 5f cf be
       -1.1405027 -0.9686139 -0.411964 -0.40502468
0001a0 a6 85 4c 3e 76 4c 92 3d fe 84 c8 bd 93 b7 02 3f
       0.19972858 0.0714349 -0.09790991 0.5106136
0001b0 82 0d e1 3e d3 fa 32 3e c1 f0 ad 3d ed 98 09 3d
       0.43955618 0.17478494 0.08493186 0.033593107
0001c0 79 82 3b 3e f4 7d 91 bf 95 02 02 40 5e 4b 7b bf
       0.1831149 -1.1366563 2.0314076 -0.98161876
0001d0 ee 47 83 be e2 81 66 3f 0a 6f ee 3e 68 18 15 3f
       -0.25640815 0.90041935 0.4656909 0.58240366
0001e0 38 04 02 be ee 3e de 3e 9f dd d9 3e b3 e5 c5 3e
       -0.12696922 0.43407387 0.42551896 0.3865181
0001f0 04 a3 c9 bd d4 34 93 bf 35 83 58 3e cb 1f 29 3f
       -0.09845546 -1.1500497 0.21143802 0.6606414
000200 81 36 05 3f fc 5a be bf 6b 83 5c 3f 73 0c 37 3e
       0.5203629 -1.4871516 0.8613803 0.17875843
000210 87 38 d5 3f 46 9d 7e be 8f c2 9f be 00 34 3d 3f
       1.6657876 -0.24864683 -0.31203124 0.7390747
000220 26 a5 76 bf 12 87 62 3f ad c4 d6 3e 0d 7a c2 3e
       -0.96345747 0.8848735 0.41946927 0.37983742
000230 8b fc 3b 3f 79 10 f5 3e 51 ff 03 40 b8 09 5c 3f
       0.73432225 0.4786413 2.0624583 0.8595233
000240 d0 43 10 c0 08 f1 c5 be e8 5c a9 bf be 6e e0 3f
       -2.254139 -0.38660455 -1.3231478 1.7533796
000250 af 07 0b c0 95 fd a3 bf 73 34 3c 3e cc e3 19 bf
       -2.172344 -1.2811762 0.18379383 -0.60113215
000260 eb e5 30 bf 31 1a e3 be d0 af 32 bd 48 c9 81 3f
       -0.69100827 -0.4435592 -0.0436247 1.0139551
000270 64 d3 f5 3e 8f 82 a3 3e 6e 75 23 3e 8c 93 c3 3d
       0.4801284 0.31935546 0.15962765 0.09549627
000280 98 2c 3e bf 6c 58 89 bc eb a6 d5 bf 22 88 15 3f
       -0.74286795 -0.016765796 -1.6691564 0.5841085
000290 5e 11 74 bf 15 e2 87 3e 27 ca 54 bc 06 b5 e1 3e
       -0.95339 0.26539674 -0.01298765 0.44083422
0002a0 80 6a 44 be 20 d2 f9 3e fe 40 90 bf 54 9d 17 3e
       -0.19181252 0.48793125 -1.1269834 0.1480611
0002b0 cd 05 85 be 50 bb 89 bf 8a 87 83 3f 48 ef 16 bd
       -0.25980988 -1.0760288 1.0275738 -0.03684929
0002c0 3e 9a a4 bf 5d 8f 9c bf 80 cc 8d 3f f3 98 ad bf
       -1.2859571 -1.2231251 1.1078033 -1.3562301
0002d0 2e 50 e4 3e b5 0d 03 40 63 56 1e 3f 28 0d af 3e
       0.44592422 2.0477116 0.61850566 0.34189725
0002e0 21 1e 9d be 5c df 61 be 5c 7c 9d bf 44 bd 06 3f
       -0.3068705 -0.22057861 -1.2303576 0.52632546
0002f0 ae 2b da be 38 74 3a bd 6e 49 0d c0 61 d0 6b 3e
       -0.4261145 -0.04552099 -2.2076068 0.23028709
000300 12 1c c5 bd e6 e1 44 bf 71 4d 99 3d a9 d3 a2 3d
       -0.096244946 -0.76907194 0.07485474 0.07950527
000310 cc e5 2d 3e 41 c7 d6 3f a1 0a 49 3f 82 4f 88 3d
       0.16982192 1.6779557 0.78531843 0.0665579
000320 41 7b 43 3f 4f 23 8b 3c de 31 57 3f c5 2a 13 c0
       0.76359946 0.01698461 0.84060466 -2.2994854
000330 f6 79 4f 3f 57 55 96 3e 41 4c a1 bf 90 fd 06 bd
       0.8104547 0.29361984 -1.2601396 -0.03295666
000340 8a 8b f2 3f 2c 81 54 3e a8 ce a8 bf 30 e5 49 3f
       1.8948834 0.207524 -1.3188066 0.7886534
000350 19 4c 18 3f 73 1f 71 bf 99 8b 09 bf dc 40 2d 3f
       0.59491116 -0.9418861 -0.53728634 0.6767709
000360 0f ed 7c 3f 7e ce a9 bf f5 ba c3 3e 1c f7 06 40
       0.9879922 -1.3266141 0.38228574 2.1088324
000370 19 b1 2d bf 01 9f 51 bf d4 a3 51 3f 01 eb e1 bf
       -0.67848355 -0.81883246 0.81890607 -1.7649843
000380 c8 2c 1f 3e e3 21 8a 3f 7c 77 06 3e 98 5d c2 be
       0.15544426 1.0791591 0.13131517 -0.3796203
000390 64 94 ad bf 43 24 46 bd b7 87 4d be c0 93 d5 3f
       -1.356091 -0.048374426 -0.20071302 1.6685715
0003a0 0d 2a 46 bf 93 b5 99 bc 40 f1 7f be 7f a5 89 bd
       -0.77407914 -0.01876334 -0.24994373 -0.06721019
0003b0 1e 29 b5 bf 6e 9b 78 3f 79 bc c9 be 62 43 cc 3e
       -1.4153173 0.97112167 -0.39401606 0.3989516
0003c0 7f cf e4 be 3c 7d 96 be 7a 68 23 3f a8 eb ce bc
       -0.44689557 -0.2939242 0.63831294 -0.025258854
0003d0 b8 17 4e 3e 4b 8a 6b 3f b3 8d 59 3f 54 bc b1 bc
       0.20126235 0.92007893 0.8498184 -0.021696247
0003e0 4c 9f 0a 40 1c b2 ee 3f e2 5f 44 be 55 c7 88 bf
       2.1659727 1.8648105 -0.19177201 -1.0685831
0003f0 29 b7 30 be f6 25 82 bf bf d6 33 bf 27 b1 f8 be
       -0.1725737 -1.0167835 -0.7024955 -0.48572657

weight f4 [88, 8]
000000 00 00 00 00 00 00 00 00 00 00 00 00 00 00 00 00
       0.0 0.0 0.0 0.0
000010 00 00 00 00 00 00 00 00 00 00 00 00 00 00 00 00
       0.0 0.0 0.0 0.0
000020 7d 52 c7 be ad d1 98 bf 6f 43 86 be 91 92 89 3e
       -0.3893012 -1.1938988 -0.26223323 0.26869634
000030 52 22 54 be 28 95 a3 3f 67 4d 9d 3f 09 3e 8c 3f
       -0.20716217 1.2779894 1.2289246 1.0956432
000040 9b 8d 23 bf d3 c7 f2 3e 93 31 e1 3f b5 e9 a8 3e
       -0.6388795 0.4741808 1.7593254 0.32990804
000050 7f 03 98 be 67 7f 65 bf 05 17 2b 3f 6a 5b a8 be
       -0.29690167 -0.89647526 0.66832 -0.32882243
000060 14 7d 8d 3e f9 80 d7 3d c3 a1 06 3f 69 ea a3 bf
       0.2763449 0.105226465 0.5259058 -1.2805911
000070 ad 36 4d 3f 15 c5 04 c0 8e 81 a9 3f 19 f7 4c 3f
       0.80161554 -2.074529 1.3242662 0.8006454
000080 c8 8d e6 bf b9 8e 5e bf 68 59 bf bf bf dc 07 40
       -1.8012018 -0.8693653 -1.494916 2.1228483
000090 94 35 a2 be 32 72 17 3f b6 45 98 bf c9 2a 53 bd
       -0.31681502 0.59158623 -1.1896274 -0.051554475
0000a0 95 37 64 3f e8 f4 00 3f c5 ab fe bf be ee bb 3e
       0.8914731 0.503737 -1.989617 0.36705583
0000b0 f7 ea f2 3d 22 ac 52 3f 8e 29 3c 3e c1 8e f2 3f
       0.11861222 0.82293904 0.18375227 1.8949815
0000c0 82 05 ea be 2a a5 bc bf 92 dd 49 bf 87 f1 77 bf
       -0.45707327 -1.4737904 -0.78853714 -0.96852916
0000d0 ec fd a7 3e 53 16 1d bf ca 0c 6f bf ec 05 07 40
       0.32810915 -0.6136219 -0.9337889 2.1097364
0000e0 ae 16 5e 3e 52 5a 1f 3f 9b 5b 26 bf 51 5b 3f 3f
       0.21688339 0.6224719 -0.6498353 0.7474871
0000f0 ec 4a 07 40 0f 24 b4 bf 0c a6 9c 3f 80 35 82 3f
       2.1139479 -1.4073504 1.2238173 1.0172577
000100 85 82 6b be 0c 33 d1 bf d8 d6 72 3f d5 b8 6e 3e
       -0.22999008 -1.6343703 0.94859076 0.23312695
000110 b3 37 a6 be b3 e1 11 bf 3a f8 f4 be 88 9a 80 3f
       -0.3246437 -0.56985015 -0.47845632 1.0047159
000120 4e 7b 30 3e 2b 27 27 40 ff 01 2b 3f cd 16 9b 3f
       0.17234537 2.6117656 0.6679992 1.2116333
000130 17 67 22 bf 17 55 0c bd d1 63 c9 3f 9f 60 34 40
       -0.6343855 -0.034260835 1.5733587 2.8183973
000140 8c 71 6b 3f 0f e2 f7 bf e9 d8 83 bf 5b c1 e5 bf
       0.91970134 -1.9365863 -1.0300571 -1.7949632
000150 40 4b 35 3f fe 43 96 be d4 cd a2 3d 38 75 91 3e
       0.7081795 -0.2934875 0.07949415 0.28409743
000160 b5 51 84 bf 0f 41 3a bf 07 ca fc 3f 19 59 ad bf
       -1.0337435 -0.7275552 1.9749154 -1.3542815
000170 32 a5 d5 3f 3d 67 ec 3e 39 dd ad 3e 6e 96 0f 40
       1.6691039 0.46172515 0.33957842 2.2435565
000180 23 28 1f bf ee 01 bb 3d b2 78 6e 3f 91 47 6e 3f
       -0.6217062 0.091312274 0.93152916 0.9307795
000190 f1 da 05 3f 2c 04 e5 bd 50 5d 05 bf 47 b1 ce 3f
       0.52287203 -0.11182436 -0.5209551 1.6147851
0001a0 4d 25 a8 3f 42 08 ff 3e 79 bc ef 3e e1 45 85 bf
       1.3136383 0.49810988 0.4682348 -1.041195
0001b0 69 08 62 3e 13 f2 2b c0 45 68 92 3f 6b cb 9c bc
       0.2207352 -2.68665 1.143807 -0.019139966
0001c0 11 5f 8f bf 69 db 28 3f 6e 84 89 3e 78 14 a3 bd
       -1.1200887 0.65959793 0.26858848 -0.079628885
0001d0 a7 d4 5d 3f 60 53 8f bf 0c 2e c6 3f 45 8e a3 3e
       0.86652607 -1.1197319 1.5482802 0.3194448
0001e0 63 f2 80 3f dc f4 09 bf 06 42 e1 3e 5a d6 00 be
       1.007397 -0.5388925 0.43995684 -0.12581769
0001f0 f9 40 ea be db c8 ae 3e 13 5c 25 c0 66 c6 6f 3e
       -0.45752695 0.34137616 -2.5837448 0.23415527
000200 85 d3 0c be 47 23 40 3c 27 c7 0a bf 63 69 8c bf
       -0.13752563 0.011727161 -0.5421013 -1.0969661
000210 9d 1b 80 be 75 f5 dc 3f d3 32 7e 3d 09 dc 7b 3f
       -0.25021067 1.7262408 0.06206019 0.9838262
000220 c7 08 71 3f d4 74 39 bf 55 e1 43 3f b2 91 6c bf
       0.9415402 -0.7244389 0.76515704 -0.92409813
000230 70 b2 0d bf db f7 e9 bf 03 c9 a9 3f a2 ad c9 3e
       -0.553504 -1.8278764 1.3264469 0.39390284
000240 1f d8 df 3e b6 0d 19 bf 97 4c db 3e 80 94 af 3e
       0.43719575 -0.59786546 0.4283187 0.34292984
000250 65 46 45 bf b5 ed 60 be df 4e fd 3e 65 e1 be 3d
       -0.7706054 -0.21965678 0.49474236 0.09320334
000260 de d4 e9 bf 79 3e d3 3f 06 e5 b8 bf 93 cc c1 bf
       -1.8268087 1.650344 -1.4444892 -1.5140556
000270 d9 dd b6 3f 51 37 4f 3f 08 73 11 be cd 31 66 bf
       1.4286453 0.8094378 -0.14204037 -0.8991974
000280 16 99 38 3f 77 69 18 3f 3c 63 f0 bf c2 27 dc bf
       0.7210859 0.59535927 -1.8780284 -1.7199633
000290 22 4a 91 be 40 50 91 bf 7a 48 b9 3e 93 35 eb 3f
       -0.2837687 -1.1352615 0.36188108 1.8375725
0002a0 ae 6d f0 3f 93 96 0a 40 5e bf 5d 3d 14 73 e6 3e
       1.8783472 2.1654403 0.05413758 0.45009673
0002b0 14 94 ea 3f 9a a9 9c 3f e3 f6 00 bf 55 bc c9 3e
       1.832644 1.2239258 -0.5037672 0.39401498
0002c0 38 aa 11 bf 35 d5 74 bf 60 72 52 bf d0 c8 14 3f
       -0.5690036 -0.9563783 -0.8220577 0.58118916
0002d0 b3 55 01 40 c5 c2 42 bf fc 41 be bd 50 eb 2e bf
       2.0208557 -0.76078445 -0.09289929 -0.6832781
0002e0 2e 52 6a 3f e4 7d 99 be 7f 6f 76 bf a5 13 0f bf
       0.91531646 -0.2997886 -0.9626388 -0.5588935
0002f0 ab 39 5e 3f af 3a f0 3f 7a 89 31 bf e0 7f f3 be
       0.86806744 1.8767909 -0.693504 -0.47558498
000300 01 04 d7 3f 60 2a 70 bf a0 9d 53 3e 66 ee d5 be
       1.6798097 -0.9381466 0.20665598 -0.41783446
000310 15 ee 04 bf dd 75 5d 3f 76 f5 0b 3f 9d 18 ad 3f
       -0.51925784 0.8650797 0.5467142 1.3523136
000320 69 09 dc bb 8f d1 6d bf 56 71 6c bf 61 3f d6 bd
       -0.006714989 -0.92897886 -0.92360437 -0.10461307
000330 d1 f7 44 bf b0 ae 13 be e6 21 4c c0 4f d9 55 be
       -0.7694064 -0.14422107 -3.189569 -0.20883678
000340 54 6b 81 3d 0b 86 a7 3d b1 56 22 bf 4c 98 69 bf
       0.06319299 0.081798635 -0.6341353 -0.9124801
000350 1b ae 89 3c 3d 8b 59 be 7b 92 9f 3e b2 87 cc 3d
       0.016806653 -0.21244521 0.31166443 0.09986819
000360 d6 06 a1 3e fe 2c 18 c0 29 17 58 bd ef c3 81 3e
       0.31450528 -2.377746 -0.052756462 0.25344798
000370 18 2e e2 be 5a b2 04 40 9a 68 b3 3e fb bf 0b 3f
       -0.44175792 2.0733857 0.35040742 0.54589814
000380 8b a3 42 3f 7f c6 03 40 f0 7e f4 be af 0c 60 bd
       0.76030797 2.0589902 -0.47753096 -0.054699596
000390 1d d2 da bf 50 1a 5c 3f 22 65 05 3d b7 ae 0a 40
       -1.7095371 0.8597765 0.03256715 2.1669137
0003a0 ed a4 14 3f f0 1c 98 3d e8 8f d6 3e b9 93 ca 3f
       0.58064157 0.074273944 0.41906667 1.5826331
0003b0 a9 4c 0d be 54 21 2e 3f 8e 3d 43 bf 9f 0c 3d 3e
       -0.13798775 0.68019605 -0.762658 0.18461846
0003c0 62 ca c4 3f 4c 58 7a 3f 2a f6 2d bf 85 53 55 3d
       1.5374262 0.9779098 -0.6795374 0.052081604
0003d0 e1 b6 0a c0 e5 b3 00 bf 08 0a b6 be c9 9e 51 3f
       -2.167412 -0.502745 -0.35554528 0.8188291
0003e0 fc 9f c8 be 5c 0d 1f 3d 46 b7 c8 3f 3b 89 cf be
       -0.39184558 0.0388311 1.5680931 -0.40534386
0003f0 de 47 0b 3f 3e a1 23 3f cb 60 f6 be 5d f1 85 bf
       0.54406536 0.6391791 -0.48120722 -1.0464283

weight f4 [798, 4]
000000 00 00 00 00 00 00 00 00 00 00 00 00 00 00 00 00
       0.0 0.0 0.0 0.0
000010 38 86 ba bc cd ee b0 bf 63 88 18 3f 90 51 48 3f
       -0.022769079 -1.3822876 0.5958311 0.78249454
000020 ef e3 e9 3f 0f 26 04 bf f1 ba 36 be 3a a2 95 3f
       1.8272685 -0.5162057 -0.1784475 1.1690133
000030 a3 14 2d bf ee 1c 23 3f ed 79 83 bf a8 d4 83 bf
       -0.67609614 0.6371602 -1.0271584 -1.0299273
000040 ea 77 86 bf df 4f 99 3f 6b 8d d4 bf eb 55 54 bf
       -1.0505345 1.19775 -1.6605657 -0.829436
000050 d0 79 3b bf 80 32 b7 be 8c 27 12 bf bd 5d 0f 3f
       -0.73232746 -0.35780716 -0.57091594 0.5600241
000060 6e a5 48 3f c4 fa 54 3e 88 49 48 3f 89 86 09 c0
       0.78377426 0.20798784 0.782372 -2.1488364
000070 fc 02 52 3f 3b f3 ab 3f bd 77 94 3e a3 2e c2 bf
       0.82035804 1.3433603 0.28997603 -1.5170482
000080 2f 8a 37 be ca 97 1c bf e4 63 23 bf a2 db 2f 3e
       -0.17923807 -0.6116911 -0.63824296 0.17173627
000090 cb 3c 2c c0 a7 24 cd 3f 4a e8 d2 bf e9 0f a2 3f
       -2.6912105 1.602681 -1.6477139 1.2661105
0000a0 7f 5e 4c bf 92 68 2a 3f c6 9d ab bf 0a ee a4 be
       -0.7983169 0.6656581 -1.3407524 -0.3221286
0000b0 8b 39 b7 3d de 1a 8d 3e 32 d8 31 3f f2 5d f1 3e
       0.08946522 0.2755956 0.6947051 0.47141987
0000c0 05 d2 57 bf 0d 53 f7 bf f0 34 16 c0 31 1a 10 bf
       -0.8430484 -1.932222 -2.346981 -0.56289965
0000d0 10 2a b9 bf be 57 4c be da e0 a7 be 74 c2 dd 3f
       -1.4465961 -0.19955346 -0.32788736 1.7324967
0000e0 4f 17 ba 3e e9 5b f9 bf 8c 51 88 3f 92 f8 d5 bf
       0.36345908 -1.9481174 1.0649886 -1.6716483
0000f0 5a 35 80 bf 6b 7c 80 be c6 ee fe bf 6a cc 00 3f
       -1.0016282 -0.25094923 -1.9916618 0.5031191
000100 10 85 b0 bf 55 7e a0 bd 68 83 9a be 8a 27 6c 3e
       -1.3790607 -0.07836596 -0.3017838 0.23061958
000110 a6 e6 ff 3e 62 1f 6e bf 26 86 8f bf f9 e5 98 3f
       0.49980658 -0.93016636 -1.1212814 1.1945182
000120 06 7b 07 bf 31 59 48 3f 15 60 70 3f 8d ba 88 be
       -0.52922094 0.78261095 0.9389661 -0.26704827
000130 5e ef 7a bd a6 d5 ca bf 95 e3 d5 3e b4 e1 3c be
       -0.061263435 -1.584645 0.41775194 -0.18445474
000140 ad c2 8b bd 29 21 e2 bf 09 d2 ed bf 34 f6 fc 3e
       -0.06824241 -1.766637 -1.8579723 0.49406588
000150 29 85 13 bd 80 33 8a 3e 90 df 41 be 21 2b a6 3f
       -0.036015663 0.26992416 -0.18932939 1.2981912
000160 ab 58 62 bf 40 97 fd be 4a ed 86 be 0b d7 d0 be
       -0.88416547 -0.49529457 -0.26352912 -0.40789065
000170 f9 76 4c 3f 72 f0 b3 be 23 f1 be 3f d6 13 ba be
       0.7986904 -0.35144383 1.4917339 -0.3634326
000180 8e 0e 02 bf 61 96 cd be 52 d9 6a be 4f 18 5d bf
       -0.5080346 -0.40153793 -0.22934464 -0.86365217
000190 11 e6 cb bd 72 b3 0d be 2f 2a 89 be 87 7b a0 bf
       -0.09955991 -0.13837984 -0.26789996 -1.2537698
0001a0 95 f5 2c 3f a6 fd 4f bf 10 87 f5 be 07 12 57 3f
       0.6756223 -0.8124641 -0.47954607 0.8401188
0001b0 70 02 84 3f 1d 64 ee 3e c6 d6 09 bf ab 9f 40 bf
       1.0313244 0.46560755 -0.53843343 -0.75243634
0001c0 22 1e f5 3d 3e 11 8d be 32 30 03 40 4f ea 8d 3f
       0.11968638 -0.27552217 2.0498166 1.108713
0001d0 4d 55 4c bf f1 5b 92 be 43 70 93 3f 18 7a 39 bf
       -0.7981766 -0.2858577 1.1518635 -0.72451925
0001e0 f0 7e 83 bf a6 22 87 bf 46 17 03 bf f0 da 79 bf
       -1.0273113 -1.0557449 -0.5120739 -0.975997
0001f0 fa 41 2d c0 b3 1a eb 3d d9 88 cd be 6e 2d 9b bd
       -2.707152 0.11479702 -0.4014347 -0.075770244
000200 91 de 53 3f 91 fb dd 3f 91 1c e4 bf b2 c5 fe bf
       0.82761484 1.7342397 -1.7821218 -1.9904082
000210 5a b2 4a be e8 b3 55 3f 27 2c 88 bf 1f 35 cc 3d
       -0.19794598 0.8347764 -1.0638474 0.099710695
000220 ec 52 30 be 2d 04 18 3f fb c4 e0 be 4b 23 28 c0
       -0.17219132 0.5938137 -0.43900284 -2.627154
000230 f1 c2 03 c0 5c ea 4d be 87 61 12 40 8c d8 cc be
       -2.0587733 -0.20108932 2.2872026 -0.40008962
000240 5d c7 5d 3f 9e 0a 3f 3e cb 13 16 bf 5e cb 9c bd
       0.8663233 0.18656394 -0.5862395 -0.07655977
000250 35 93 6d 3f 0a 44 e5 bf e1 31 a5 bf 90 04 88 be
       0.92802745 -1.7911389 -1.2905847 -0.2656598
000260 43 10 01 40 c9 c5 88 bf 83 b2 a5 be 9e f2 95 bf
       2.0166175 -1.0685359 -0.32362756 -1.1714666
000270 21 22 9f be 79 53 2b 40 a5 88 f6 bf de e9 9b bd
       -0.31080726 2.6769698 -1.9260451 -0.07612966
000280 c0 da d4 3f b4 57 f2 be 22 ff d3 3f 17 e8 ed 3e
       1.6629257 -0.47332537 1.6562235 0.46466133
000290 6b 0a 31 bf be 02 45 bf d2 09 be bd 00 aa 38 bf
       -0.6915652 -0.7695731 -0.09279217 -0.721344
0002a0 43 70 7f bf 73 b0 93 3c b4 d7 07 3f 03 4e 26 c0
       -0.9978067 0.018028473 0.5306351 -2.5985115
0002b0 4e 57 59 bf 91 80 28 3d b6 bd 30 bf 8d 8a b6 3f
       -0.8489884 0.041138235 -0.69039476 1.4261032
0002c0 d8 34 aa bf 16 9f 38 be 43 6c a1 be b1 9e 97 3e
       -1.3297377 -0.18029436 -0.3152791 0.2961326
0002d0 74 3b 68 3e 0d e0 09 3f 0d 74 cd 3f 63 37 b6 3f
       0.2267893 0.538575 1.6051041 1.4235653
0002e0 a5 3d 23 40 9e 84 50 be 69 75 6b bf 6c 5d 86 bf
       2.5506375 -0.2036309 -0.9197603 -1.049726
0002f0 12 c9 d8 bd da e2 10 c0 c1 1a a1 3d 89 bf 84 3f
       -0.10585226 -2.263846 0.07866431 1.0370952
000300 41 21 3d 3f ec 50 e9 3f 5a 2c ab 3f c8 0c de 3e
       0.73878866 1.822782 1.337291 0.43369126
000310 47 5d ba 3f 21 13 f3 bf b9 f0 02 3f 88 47 8b bf
       1.4559716 -1.8990213 0.51148564 -1.0881205
000320 54 bb a4 be f7 dd 57 be 2b d7 de bf 9e ae 0f be
       -0.3217417 -0.21080767 -1.7409414 -0.14031455
000330 01 a9 5c bf 47 bc c6 3e 12 9e d1 be 73 21 14 3f
       -0.8619538 0.3881552 -0.4094091 0.5786354
000340 92 15 68 3b 82 ea c8 bf 35 32 33 bf f9 59 e8 3e
       0.0035413248 -1.5696566 -0.69998485 0.45381144
000350 5b c1 ea 3e 52 7d 97 bd 21 d2 fc 3e 0b 79 09 bf
       0.45850644 -0.0739695 0.49379066 -0.5370032
000360 fb 80 7e 3f 44 82 dd 3e e3 de 2a 3f 03 5c 79 be
       0.9941556 0.43263447 0.6674635 -0.24351506
000370 d9 cb 75 3f e7 84 a9 bf 23 d5 15 3f 7b da 7d 3e
       0.9601417 -1.3243684 0.58528346 0.24790375
000380 e6 3b 27 3f c8 e5 95 3f 71 66 05 3e ed 78 98 3d
       0.6532577 1.1710749 0.1302736 0.0744494
000390 e6 e5 7f 3f 79 2c 08 bf a9 34 4a be cb ef 41 3f
       0.9996017 -0.5319286 -0.19746651 0.7575652
0003a0 14 9f df bc c9 8f 98 3d 69 1d 53 3e d9 ca cd 3f
       -0.027297534 0.074493 0.20616688 1.6077529
0003b0 db 26 8d bf c2 ba 08 40 85 53 84 bf a5 a4 a2 bd
       -1.1027483 2.1363988 -1.0337988 -0.0794156
0003c0 66 30 00 c0 57 22 54 bf ef 52 ac bf 50 55 21 3e
       -2.002954 -0.828649 -1.3462809 0.157552
0003d0 ed fc 26 bf 83 1f af bf d8 84 5d be d3 5e 9c be
       -0.65229684 -1.3681492 -0.21632707 -0.30541095
0003e0 00 17 b2 3e 75 fa 8b 3f 10 a8 63 3f e7 ea 0d c0
       0.34783173 1.0935808 0.8892832 -2.2174623
0003f0 13 4e a3 be 1f f3 c5 bf eb 77 38 be 82 42 ce 3e
       -0.31895503 -1.546482 -0.18014495 0.40285116

weight f4 [26, 26]
000000 34 3a 8f 3d a8 6d 04 3e 24 aa a6 be d8 98 81 3e
       0.06993523 0.12932456 -0.32551682 0.25311923
000010 f9 8f 7b 3e f4 44 24 bd 4f 4c 55 3d fa 38 b3 3e
       0.2456664 -0.04010482 0.052074727 0.35004407
000020 f4 56 02 3e 61 38 3a 3e ec 40 86 be c3 23 cd 3e
       0.12728482 0.1818557 -0.26221406 0.40066347
000030 4b a1 c8 be 48 4c 90 be 6f 74 1e 3e 79 12 d2 3e
       -0.39185557 -0.28183198 0.15474103 0.4102972
000040 57 2b 81 3d 36 36 84 3e 0f 4c ab 3c c2 42 df bd
       0.063070945 0.2582261 0.020910291 -0.10901405
000050 eb c0 96 bc 50 e9 73 3e 40 9b 03 bd e3 dd 53 3e
       -0.018402537 0.2381947 -0.03213048 0.20690112
000060 d3 90 9e 3d 4f 72 04 3e b1 2b 0a be 6b ac 53 be
       0.07742467 0.1293423 -0.1349323 -0.20671241
000070 b1 0c c0 bd 12 38 a4 bd 4d 93 84 3d c4 c0 d3 bd
       -0.09377421 -0.08018507 0.06473408 -0.103395015
000080 66 cc fe bc 6c 6f 7c 3b 63 64 71 bd ac db d9 be
       -0.031103324 0.003851856 -0.058933627 -0.4255041
000090 d5 20 ad 3e e6 87 80 be 4c 34 2c 3e 34 e7 78 bc
       0.3381411 -0.25103682 0.16816825 -0.015191842
0000a0 c3 a3 9e bd 9f f5 8a 3d 96 43 90 bd 8b bd f9 3c
       -0.07746079 0.0678513 -0.07044141 0.030485889
0000b0 4f ba d5 bd f2 eb 0a bd 60 15 31 bc a4 ce e5 bd
       -0.10435926 -0.03391642 -0.010808319 -0.11221054
0000c0 b1 90 64 3d 3a e4 51 3e 3c b3 9c bd 57 3d 95 3e
       0.05580205 0.20497218 -0.07651374 0.2914836
0000d0 6d be 69 3d 63 ed c0 3e 71 e7 9e bd 17 09 59 3d
       0.05706637 0.37681112 -0.07758988 0.052987184
0000e0 04 a7 d0 3e 55 9c f6 3c 43 3a 54 3e 9b 5c 9b 3e
       0.40752423 0.030103842 0.2072535 0.3034409
0000f0 2a 37 9e 3d 57 66 79 bd 56 c2 17 be 88 a3 9c 3e
       0.077253655 -0.060888615 -0.14820227 0.30593514
000100 6c 67 fa 3d d5 d4 14 be 0c 6a 0d 3f cb 70 24 be
       0.122267574 -0.14534314 0.5523994 -0.16058652
000110 ef dd 44 3d ac 12 37 bc 3f 52 90 be c0 54 f5 bd
       0.048063215 -0.011173885 -0.2818775 -0.119790554
000120 aa d4 9c bd c9 02 82 3c 76 79 24 be a9 1a 47 3e
       -0.0765775 0.015870469 -0.16061959 0.19443764
000130 bb e1 a4 b9 79 41 c5 3d 50 26 79 bd d4 7a 96 bd
       -0.000314487 0.096316285 -0.060827553 -0.07347646
000140 c1 a5 c9 3d dc bf 14 be 14 76 96 bd 30 17 b4 3e
       0.09846068 -0.14526314 -0.0734674 0.3517394
000150 aa 6c 80 3e ae 37 15 bd 04 00 30 3e 65 b9 88 be
       0.25082904 -0.036430053 0.17187506 -0.26703945
000160 a5 07 83 3d 38 af b1 be ad 7b 08 3f aa d5 09 3e
       0.063979425 -0.34703994 0.53313714 0.13460413
000170 d3 2d 47 3d 08 0e 37 be 96 e2 b6 be 9e 1e 2c 3e
       0.048627686 -0.17876446 -0.35719746 0.16808555
000180 ba 15 cc be bb de 0f 3e 1c ef da 3c b1 38 71 3e
       -0.39860326 0.14049809 0.026725344 0.23556782
000190 2a a7 5a be bf 57 99 3e a7 eb 01 3d da b8 2b 3d
       -0.2135283 0.29949757 0.031718876 0.041924335
0001a0 75 ca 7b be 78 6d 53 be 0a 07 9d 3d 48 6e 46 3e
       -0.2458895 -0.20647228 0.07667358 0.19378006
0001b0 00 a8 47 3d 04 5f ca 3d 73 3e 06 3e 14 6c 19 3e
       0.0487442 0.09881404 0.1310976 0.14982635
0001c0 97 e6 8b be 94 b8 0e be 1e ca 37 3d d2 6c 38 3e
       -0.27324364 -0.13937598 0.04487049 0.18010262
0001d0 e8 47 5f 3e f3 76 4f 3e ee 8e 25 bd 95 75 d2 3c
       0.21804774 0.2026022 -0.04041951 0.025690833
0001e0 b8 87 20 be 96 c6 9d 3c c7 ba 26 be 8a 95 0f 3e
       -0.15676773 0.019259732 -0.16282187 0.14021888
0001f0 26 0e 2e 3e c6 7a 3f 3b 06 99 d7 bd e4 db 60 3e
       0.16997585 0.0029217466 -0.10527234 0.21958882
000200 40 5a ef 3d cd aa d3 3d 68 c2 8b 3e 5a 3f 64 3e
       0.11687136 0.10335312 0.27296758 0.22289792
000210 03 95 91 bd 01 7c d0 bd af 98 47 3e a7 0f 2d be
       -0.071085 -0.10179902 0.19491838 -0.16900502
000220 5a c0 f0 be e7 03 18 be 75 16 18 3d 2c 84 b5 3d
       -0.47021753 -0.14845239 0.03713079 0.088631004
000230 bb 5a af 3d 7a c9 2a 3e 2d a4 a7 bd 0c 84 8f be
       0.08562227 0.1667842 -0.08185611 -0.2803043
000240 82 65 49 3e 49 be c6 3d 78 ed d5 3e f9 24 5c bd
       0.19667628 0.09704263 0.41782737 -0.053746197
000250 02 c6 4b 3e 11 c1 12 3e 3a 12 12 be f9 ff 1a bd
       0.19899753 0.14331461 -0.14264765 -0.03784177
000260 62 20 86 bd 39 39 04 be c7 a2 0f be 47 48 99 3d
       -0.06549145 -0.12912454 -0.14026938 0.07484489
000270 4e bf 64 3e 42 a1 b7 3c 9f 29 ab be f2 63 ba bd
       0.22338602 0.02241576 -0.33430192 -0.09101094
000280 56 0e d7 3c 15 52 07 3e 10 13 ad be 65 07 8e 3e
       0.026251953 0.13214906 -0.33803606 0.27740017
000290 f0 10 54 3e 58 d3 75 3c ba 90 81 3e 08 5b 96 3e
       0.20709586 0.015004002 0.2530573 0.29366326
0002a0 1f fa 26 bf 38 34 7f bd 34 dd 1d be cd e7 a4 3d
       -0.65225405 -0.06230566 -0.15416414 0.08052025
0002b0 0e fc 59 3f 17 b0 c5 3d 97 78 fe 3b f6 6f 85 3e
       0.8515023 0.09652727 0.0077658403 0.26061982
0002c0 47 f1 b2 ba 8b 7e 99 bd e7 66 89 3d d4 28 87 be
       -0.0013652229 -0.07494839 0.0670908 -0.26398337
0002d0 35 b0 ae 3d 45 ce 44 3c c1 c2 8d 3e f0 b1 94 3d
       0.085297026 0.012012069 0.27687648 0.072605014
0002e0 77 1b 9e 3d 8b b6 3c 3d 96 62 08 3e 52 71 85 bd
       0.07720082 0.046072524 0.13318858 -0.06515755
0002f0 4b 2c 6e bc e8 f8 64 bd 15 97 75 bd 7e fe c4 3d
       -0.014536927 -0.055901438 -0.059958536 0.09618853
000300 31 5d 38 bd c5 ee fe ba 6e a5 77 3d 1f bd 13 3e
       -0.04501075 -0.0019449821 0.0604605 0.14427613
000310 89 1a 0c 3e ff 25 93 3d 30 5d 0a bd 26 40 52 3d
       0.13681997 0.071849816 -0.033780277 0.051330708
000320 e0 18 4f be 05 f1 d7 3d 4d 3f 0b 3d 73 47 61 3c
       -0.20224333 0.10544018 0.033995915 0.013749945
000330 bd a0 73 bb 90 8e 03 3e ef e3 a2 3d 84 d3 5e be
       -0.0037174665 0.12847352 0.07953631 -0.21760374
000340 b2 dd f8 3d 73 0b dd 3d b8 35 49 be 63 85 8f 3e
       0.1215166 0.107931994 -0.19649398 0.28031453
000350 81 b6 55 3d 1b f1 1f 3e 97 94 91 3e b7 a5 5f 3e
       0.052176002 0.15619318 0.28433678 0.21840559
000360 eb 23 4c be 31 49 54 3c 1d 09 a7 bd 04 dd 86 bc
       -0.19935577 0.012956903 -0.08156035 -0.01646281
000370 db a6 8f 3d 18 30 b2 bc f3 23 0a 3e 85 44 6d bd
       0.07014247 -0.021751449 0.13490276 -0.057926673
000380 c9 0d c5 bd eb 2b 8e bd f4 76 98 be 15 fa 1d 3d
       -0.0962177 -0.069419704 -0.29778254 0.038568575
000390 16 5c 12 bd ce dc 2c 3e de 57 93 be 49 5d 12 3e
       -0.03573235 0.16881105 -0.28777975 0.14293398
0003a0 87 aa bb 3d 42 84 cf 3d ab 0c 6b be eb 18 01 be
       0.09163385 0.10132648 -0.22954051 -0.12607162
0003b0 92 72 e8 3e 1d cc 58 be 20 b7 53 bb 51 d0 84 3e
       0.4539991 -0.21171613 -0.0032305196 0.25940183
0003c0 d8 82 b3 3e 1c 4d 51 be c3 6f 96 be 03 58 23 be
       0.35060763 -0.20439571 -0.29382142 -0.15951543
0003d0 e3 98 b3 3d 04 bc 55 be 55 a8 07 3f 0f 5f c1 3e
       0.08769395 -0.20872504 0.5299123 0.37767836
0003e0 d7 9a b3 3d 68 49 05 bf 69 8e 0e be e7 69 be 3c
       0.08769768 -0.52065134 -0.13921513 0.023243858
0003f0 92 74 32 be 60 12 68 bd 76 7c f9 3c f1 80 1e 3e
       -0.1742728 -0.05665815 0.030454855 0.15478875

weight f4 [1, 26]
000000 d0 ae 66 be e4 e1 1b be 41 59 88 be f7 9f 76 3e
       -0.22527623 -0.15222889 -0.26630595 0.24084459
000010 80 16 01 3e d6 7a aa be 75 bc db be ff 84 b6 38
       0.1260624 -0.3329684 -0.4291722 8.703209e-05
000020 a6 c0 9a bd cb cb 9f 3e 5e 46 49 3e a6 e2 ea 3d
       -0.07556276 0.3121017 0.19655749 0.11469011
000030 c0 d6 bd 3e 17 98 08 be ea 5c 51 be c7 f7 0f 3e
       0.37077904 -0.13339268 -0.204456 0.14059363
000040 1c 86 61 3d b1 8c 3a 3e ed e4 4b 3e a4 46 a7 be
       0.055059537 0.18217732 0.19911547 -0.32671082
000050 4f d3 2b be 61 fc 35 be 23 c8 98 bd 78 7b 9d be
       -0.16779827 -0.17772056 -0.07460048 -0.30758262
000060 61 7b b7 3d c0 da 3a be
       0.089590795 -0.18247509

weight f4 [10, 46]
000000 c3 f8 d9 be eb ea a1 be 19 86 ae be 91 4d 96 3d
       -0.42572603 -0.3162454 -0.34086683 0.07339013
000010 95 e6 2a be d3 c1 2b be e2 23 98 3e 38 22 4c 3e
       -0.16689523 -0.16773157 0.29714876 0.19934928
000020 54 bf 1c 3c 99 26 23 3e 38 44 82 be bd b7 ac 3d
       0.009567101 0.15932693 -0.25442672 0.08433483
000030 af 1e a3 bd a0 6a 01 be 38 8a f2 3e a0 0a a1 3e
       -0.07964837 -0.1263833 0.47371078 0.3145342
000040 b6 47 9e 3e ff 24 93 3e a7 0c 9e bd ac b3 e5 bc
       0.30914086 0.28739163 -0.07717257 -0.028039776
000050 13 bd 9c bd 24 28 f8 3c e0 78 eb 3c 44 1c 97 3d
       -0.076532505 0.030292578 0.028744161 0.07378438
000060 bb a7 85 3d 7c 18 ca 3a 86 52 27 3e 64 6c d0 bc
       0.06526133 0.0015418674 0.16340074 -0.02544231
000070 9e fb 58 3e ed cc 86 be 4b 4e d2 bc a6 51 02 3d
       0.21189734 -0.2632822 -0.025672099 0.031816147
000080 fe 0e 2a bc 2d 9d 8e bd 47 28 54 3e f7 f5 3e 3e
       -0.010379551 -0.06963573 0.2071849 0.18648516
000090 9e bc 96 3e 11 c8 65 bd cd bb a7 3c 01 b5 10 bd
       0.29440778 -0.056099 0.020475293 -0.03532887
0000a0 20 b1 4a be 1e a5 dc bd f1 e2 8a bd cc 32 87 3d
       -0.1979413 -0.10773681 -0.06781567 0.066014856
0000b0 30 68 b8 3d bf e2 15 bd c5 4d b4 3c 3d fc b2 3d
       0.09004247 -0.036593195 0.02200974 0.08739517
0000c0 4a 38 09 3e 2c 0d b2 bc f7 9f 0b 3e 94 c4 3e 3e
       0.13400379 -0.021734796 0.1363524 0.18629676
0000d0 ab 3f d8 bd 3b 46 c6 3c 92 51 28 be b9 c8 3e be
       -0.10559019 0.02420341 -0.16437367 -0.18631257
0000e0 6b 5e ba 3e a1 7c 7b be c8 ca a4 3d 66 a9 a5 3d
       0.3640016 -0.24559261 0.0804649 0.08088951
0000f0 b9 af 76 3e bb 60 66 be 84 ed 29 be a6 a4 03 bf
       0.2409047 -0.22497837 -0.16594511 -0.5142311
000100 14 bd 6e 3d c3 84 04 3e 87 a1 34 3e 8d c0 58 bd
       0.058285788 0.1294127 0.17639743 -0.052918006
000110 4e bf af bd 61 a3 25 be 56 d3 32 3c 81 ab ce bd
       -0.0858141 -0.16175605 0.010914644 -0.100913055
000120 ee 1f ef bd 26 a9 98 bd f5 6f 44 bc db 6f 5d 3e
       -0.11676012 -0.074541375 -0.011989583 0.216247
000130 4d 63 c1 bd a3 2f 77 3d e9 fd 7b 3c 81 c6 63 bd
       -0.09442768 0.060348164 0.015380361 -0.05560923
000140 b2 69 f4 bd 42 47 59 3e 8c a6 43 3e b4 11 ce 3d
       -0.11934222 0.21218589 0.19106501 0.1006197
000150 60 1f 46 3e 64 c0 92 bd 40 20 54 3e f0 6b b7 3c
       0.19347906 -0.07165602 0.20715427 0.022390336
000160 3a 4e 36 3e 23 93 7a be 5e 33 aa 3e a7 c3 0c 3e
       0.17803279 -0.2447019 0.33242315 0.1374651
000170 92 c8 50 3e dc 75 19 3e 39 55 09 be d2 bd d0 be
       0.20389012 0.14986366 -0.13411416 -0.4076982
000180 b7 e5 ae 3e 13 06 70 3e 61 1c bc 3d bd f7 d1 3e
       0.34159634 0.23439817 0.091851 0.41009322
000190 d0 16 11 3e 5f 14 26 be 08 6c bd 3e 38 e8 6a 3e
       0.14168859 -0.16218708 0.36996484 0.22940147
0001a0 44 1d 21 be ac 98 2c bf 4f 72 e2 be 73 90 f8 3a
       -0.1573382 -0.6742046 -0.44227836 0.0018963948
0001b0 48 f3 59 3e 5f 53 e0 be c1 aa 50 be 6d 39 f6 bc
       0.2128421 -0.43813607 -0.20377637 -0.03005668
0001c0 2a d1 ef 3d d6 c7 71 3d 5b 8c bd bd ee 3a 7e 3e
       0.11709817 0.05902847 -0.09255286 0.24827167
0001d0 a6 da df 3d c2 d4 27 3d eb 5e 1e 3e ae 88 aa be
       0.10930376 0.040974386 0.15465896 -0.33307403
0001e0 0e e1 89 3e b8 17 52 be af 8c d7 3e 1d c2 be bd
       0.26929516 -0.2051686 0.4209952 -0.09314368
0001f0 5c e7 cc bd 8a 2e 46 3d 27 4f 4e 3d 93 63 3a be
       -0.10005066 0.048384227 0.050368454 -0.18202047
000200 b0 c2 b9 3d 75 6a ef 3d 4f ac c8 3e 2b 35 6d 3d
       0.09070337 0.11690227 0.3919396 0.057912033
000210 ee 84 a2 3e 50 49 5a bd e2 bc 71 bc bc bd 1e 3c
       0.31742042 -0.053292572 -0.014754506 0.009688791
000220 b3 8f 9a 3d 62 70 99 3d 54 4c 88 be b0 cd 72 be
       0.0754694 0.074921384 -0.26620734 -0.23711276
000230 b5 a3 45 be 8d 4a 70 3e a9 ec 5a 3d 42 b7 a4 bc
       -0.1930073 0.23465939 0.053448353 -0.020106915
000240 4d b6 d2 3d 1a 83 10 3e 74 83 24 3e f7 6a 43 3e
       0.10288677 0.14112511 0.1606577 0.19083773
000250 38 80 d2 3b 30 b4 68 3e a2 e6 1f 3e 3c 32 8a 3e
       0.0064239763 0.22724986 0.15615323 0.2699145
000260 96 9c f4 3d 37 92 09 3e 6f be 46 3d 0e ae 7a 3e
       0.11943929 0.13434683 0.048521455 0.24480459
000270 6f ff 76 bb 12 a8 d8 bd 82 71 0a 3d df f7 e7 bc
       -0.0037688871 -0.10578932 0.033799656 -0.028316436
000280 21 b2 cc 3c ef 3d 9e 3d b8 88 bb bd d6 9b a2 3d
       0.024987282 0.07726657 -0.091569364 0.079398796
000290 04 45 46 3d 86 e2 50 bd 10 fc 13 be 5b 06 66 be
       0.048405662 -0.05099728 -0.14451623 -0.22463362
0002a0 ba e9 21 3e 6d 53 3b bd be 71 0a 3e f9 64 12 3d
       0.15811816 -0.045733858 0.13519952 0.035740826
0002b0 c5 b8 84 bd bd 4d 57 bd a6 dc 5a be 7d ca 45 bb
       -0.064805545 -0.05256437 -0.21373233 -0.0030180507
0002c0 9d 4f 26 be ca cc ac bd b1 19 38 be d3 e0 80 bd
       -0.16241308 -0.08437498 -0.1797855 -0.06292882
0002d0 89 50 56 be 87 e0 84 3e 28 53 8e be 4b 69 5a 3c
       -0.20929159 0.2595255 -0.27797818 0.013330768
0002e0 36 8e f9 be ec 66 36 3e f2 8f e0 bd f9 a4 c9 3d
       -0.4874131 0.17812699 -0.109649554 0.09845919
0002f0 da ff 45 bd 52 b4 0b 3e 0a ef 0d 3e c6 d7 97 3e
       -0.048339702 0.13643005 0.13860717 0.2965681
000300 ed 2f a4 3d ad f2 1a 3e e5 de 75 be 03 ca 7e 3e
       0.080169536 0.15131636 -0.24010809 0.24881749
000310 57 6d ab 3d a0 a9 65 3e 12 9e b4 3e 5d 2e 82 bd
       0.08370464 0.22427988 0.35276848 -0.06356499
000320 6f 53 e4 3c af 0e b2 3e be 72 dd 3c 3e 98 9e bd
       0.027871815 0.34776828 0.027032252 -0.07743882
000330 7f f6 27 bd f2 af d7 3c 0d 80 93 3d 96 a2 cc 3c
       -0.04100656 0.026329014 0.07202158 0.02497987
000340 5f 39 06 3c 2b b6 87 3d a1 fd 3a be 23 9e 29 be
       0.008192389 0.06626543 -0.18260814 -0.1656423
000350 55 7e 89 3e bf 1e 7d 3e f8 c5 96 3c 9a 93 b7 3d
       0.26854196 0.2471876 0.018404946 0.089637
000360 79 57 29 be 06 63 84 be 4e d0 98 bd 30 4f 61 3e
       -0.16537274 -0.258568 -0.07461606 0.22002864
000370 e6 14 ca 3c bd ad ac bd 71 e4 6d 3d 97 85 b5 be
       0.024668168 -0.084315754 0.058079187 -0.35453483
000380 d2 a9 73 3e 59 b5 09 be 2d 8d d5 3d ef 08 88 bd
       0.2379525 -0.13448085 0.10427318 -0.06642329
000390 6b d0 21 bd f0 43 9e bd 61 86 76 bc 59 df 34 3e
       -0.039505403 -0.07727802 -0.015046687 0.17663325
0003a0 35 38 4a 3e f2 7b 0d 3e 2d 2c 5e bd 76 de 7d 3e
       0.19748004 0.13816813 -0.054241348 0.24791893
0003b0 72 6c 2e be 16 27 88 be 10 ea 1f bd 8f 66 b0 bd
       -0.17033556 -0.2659232 -0.03904158 -0.086133115
0003c0 30 3b 86 3e de 13 0e be 8b ac a3 3e 63 cc 45 3e
       0.2621703 -0.13874766 0.31967577 0.19316249
0003d0 f3 b5 9f bd 30 c8 55 bc df 18 c7 be 4b 2b 66 be
       -0.07798376 -0.013048217 -0.38886163 -0.22477452
0003e0 d7 db 87 bd c8 a8 00 3e 71 df ed 3d 77 59 c4 3d
       -0.06633728 0.12564385 0.11614884 0.095873766
0003f0 50 0c 86 3a e2 c5 41 3d 08 7a 39 3e 2f 68 58 bd
       0.0010227058 0.047307856 0.18112957 -0.052833732

bias f4 [10]
000000 3a ef 2d 3e f3 63 a1 3d 12 76 a3 3e 7a d8 42 3e
       0.16985789 0.07880392 0.31926018 0.19027892
000010 cf fc 23 3e c3 87 16 3e dc b5 0c 3e dc d4 0c 3e
       0.16014408 0.14700226 0.13741249 0.13753074
000020 c4 1c 6d 3e 75 72 87 bd
       0.23155504 -0.06613628

weight f4 [4, 10]
000000 ff f6 f1 3d 9d 31 e6 be 3b 39 47 bf f2 3e 4d be
       0.11814689 -0.44959727 -0.778217 -0.20043543
000010 5f 18 a6 3e 95 89 6d be 6f c2 c7 3e 4d bb c8 3d
       0.3244047 -0.23197015 0.3901553 0.0980135
000020 95 40 bc 3e be f1 04 be f5 45 bf 3e 1d ea d2 be
       0.36768022 -0.12982842 0.3735806 -0.4119424
000030 81 27 b3 be 39 9c 8d 3e 90 c9 ae bd 17 d6 86 bd
       -0.34991077 0.2765825 -0.08534539 -0.06583803
000040 ba 94 ee be 2b 13 46 bd 4b 22 c0 3d 97 fb 9f 3e
       -0.46597844 -0.048358124 0.09381541 0.31246635
000050 3f 8b 56 bf c7 d1 b7 3e 47 de 63 3c 45 e4 87 be
       -0.8380622 0.35902235 0.0139079755 -0.26541343
000060 38 a3 da be 6f 0e fb 3e 2c 72 a4 be ed b4 18 3e
       -0.4270265 0.4903445 -0.32118356 0.14912768
000070 88 1a 86 be 9c 15 ae bd 72 df bb be c3 20 ee bc
       -0.26192117 -0.085002154 -0.36693913 -0.029068356
000080 fd 64 4b 3f f6 c5 6d be 46 2c e0 be 00 bd 82 be
       0.7945097 -0.23220047 -0.43783778 -0.2553482
000090 c8 d0 cf 3e 9b ac 3b bf d6 fd a1 3e 6f fb 82 be
       0.40588975 -0.7331025 0.31638974 -0.25582454

bias f4 [4]
000000 4c 21 c0 3d 21 6f 5f bd a9 e3 78 bd ed 83 7e be
       0.09381351 -0.05454934 -0.06076399 -0.24855013
