aliyunwei/src/lstm_0.pt (torch, 314479 bytes, 18 tensors)

weight f4 [2617, 12]
00000000: 0000 0000 0000 0000 0000 0000 0000 0000
00000010: 0000 0000 0000 0000 0000 0000 0000 0000
00000020: 0000 0000 0000 0000 0000 0000 0000 0000
00000030: d4bd 31bf ec9a 08bf 3ebd 3bbf 0e2e 3a3f
00000040: 2084 c83f 11e3 1bbe 5cea f2be 8caf d63e
00000050: 2f20 39bf 0aa8 833f e58b 433f f531 cd3f
00000060: 3fd8 b13f f436 d33f 6050 e83e f631 ba3f
00000070: 2010 0d3e 6414 c33c d502 01be 5bfb 613f
00000080: 6f60 9abf 9515 4abf 1c14 c9be 6153 0e40
00000090: c1bb 9b3e 5853 cfbe b14e 953e 6f25 3dbf
000000a0: 112c bebf 2a1f 733f edd4 56bf 78ca 12bf
000000b0: f590 9bbf 8796 0140 a4be 96bf 1649 eebe
000000c0: 6025 5fbf 5cb5 20bf 8e6b 983d 8865 003f
000000d0: dc52 eebe f074 913f 7bc5 46bf abb8 33bf
000000e0: fc53 abbf 91aa 0c3d 7502 78bd 6bfa 243f
000000f0: 417a a5be 0045 b13f 4718 a2bf f73d c23f
00000100: 7f08 943f 0a95 273f 1cdd 2140 2298 153f
00000110: 1d7f 333e 0fc4 d63c 7434 aebf 68cc 8b3f
00000120: d62f 28be 4ace ff3e 5438 5d3d bd31 d03e
00000130: 1369 0c3f 11b4 1cbf 98b1 06c0 2c56 37bf
00000140: 8ed8 293c 3d6f a5be 04b0 a3bf ebf0 0ebf
00000150: f9be 6a3e d9d8 533f b690 933f a6f4 183e
00000160: a4f1 bb3e 7061 2cbe 9a1c 8bbf 6ddf 003f
00000170: 0c3e febf b988 36bf 7b2d 9e3f 123c 9b3e
00000180: a033 19c0 0754 ee3e 2496 3f3f 83d9 df3c
00000190: 8377 1c3f 766b 0e3f a643 823f 12d8 dbbe
000001a0: a4f6 34be 2ad1 373f 70ac c53e 0c51 2e3e
000001b0: 8460 813e 4172 9b3f 88e3 a3ba 2c45 94be
000001c0: a1e5 b1bf 4be9 c7bd 924e 12bf c0fb e83e
000001d0: ba52 313f 9411 b23d 0e03 bebe 89e9 003f
000001e0: ff89 553e 5ebd 163f 6b83 bc3d 9e59 143f
000001f0: 0737 573f 945b ef3e 3e4d ac3e 081e 563d
00000200: 4e72 d53f 9cee b33f a257 98bf 818b 85bf
00000210: 06df 04be 2aac c73f 56e1 1f3f 34a7 0c3f
00000220: 7a5e 8b3f df0f 913c da7a dcbf 0efb 613f
00000230: 0a4f b7be 8144 7c3f 3bac 27bf 9780 1b3f
00000240: 052e 5fbf 8d04 a63f 0231 d03f c44b 9c3f
00000250: b200 c93d 7fee 75bd 68d1 38bf 4b5e d6bc
00000260: 811c 323e 83fd 563f 3179 b8be aa1e cb3f
00000270: b766 17c0 2deb cbbe 6ef5 91bf 2d5d 463f
00000280: dc0b e8bf 9a43 5f3e 3940 c23c a0f4 a8be
00000290: 5715 8c3e 1476 32bf ebc1 2a3e b38f 85bf
000002a0: a763 cebf 64ac a93f 5c56 9a3f ac26 8d3d
000002b0: debb c2bf 69c7 2e3f 5b9b 5d3f 57d4 fb3f
000002c0: f407 00bc 6f87 003d 4802 62bf 84a4 313d
000002d0: b591 63bf 1b3f c2bf 00b2 8abf 4c39 ffbe
000002e0: 4f5b fdbe e24b b7bf a93b ebbf 11c2 f93d
000002f0: 87c8 793f bbb7 07bf 34fa 2b3f e057 2d3f
00000300: b1f7 963f 0f3a 8ebe 2ae5 253f 33bb d43d
00000310: aaee 56bf f7e7 153f 9733 bb3e eb03 b33f
00000320: e36e 1b3f 9ab6 e23f 4885 03bf 6942 3ebf
00000330: f1db 343e ec7a 823f 8f85 9f3f 3f92 e03e
00000340: 48ec 46bf ee5f 79bf deb5 f1be a29f 10bf
00000350: cfba 163e 0042 d73e 04d8 10be 7489 0dc0
00000360: 7831 f2be 5553 9c3f 9ecf 8ebf 72f1 c43f
00000370: 06f1 0d3e 1b36 9b3d 483b 543f b261 903f
00000380: 6300 903e 129c c53f 9704 d03d 9263 60bf
00000390: 00b0 05bf 3dbb ee3e 4468 073f 70ac 0940
000003a0: 8afe 17be a812 16bf bfa3 edbf 3ecb 96bf
000003b0: 1462 2dbe 5ffd c2bd 4120 883e 2257 e03e
000003c0: fce1 62bf a6e2 863e 6f96 03bf 26ea e13e
000003d0: d4e7 54bf cee6 d3bc e083 acbe c9b9 b23f
000003e0: 7f48 993f a195 2ebf f884 503f 9988 fa3e
000003f0: 57ba 1d3f c085 273f ff07 083f 0ef9 1d3e
0.0 0.0 0.0 0.0 0.0 0.0 0.0 0.0
0.0 0.0 0.0 0.0 -0.6943028 -0.5336139 -0.73335636 0.72726524
1.5665321 -0.15223338 -0.47444427 0.41930807 -0.72314733 1.0285656 0.7638534 1.6030871
1.3894118 1.6501145 0.4537382 1.4546497 0.13775682 0.023813434 -0.12598737 0.88274163
-1.2060679 -0.7893918 -0.39273155 2.223839 0.30416682 -0.40493274 0.291616 -0.73885244
-1.4857198 0.9496943 -0.8391865 -0.5734019 -1.2153612 2.0248125 -1.1776929 -0.46540135
-0.87166405 -0.6277673 0.074423894 0.50154924 -0.46547592 1.1363811 -0.7764508 -0.70203656
-1.3385005 0.034342352 -0.06054922 0.6444461 -0.32319835 1.3849182 -1.2663659 1.517516
1.1565093 0.6546179 2.5291204 0.5843526 0.17528959 0.026216535 -1.3609757 1.0921755
-0.16424498 0.49962074 0.054008797 0.40662947 0.5484783 -0.6121226 -2.1045895 -0.7161586
0.010366572 -0.3231143 -1.2788091 -0.5583636 0.22924413 0.8275276 1.1528537 0.14937076
0.36707795 -0.16834044 -1.0868104 0.5034092 -1.9862685 -0.7130237 1.235763 0.30319268
-2.393776 0.46548483 0.7483847 0.027325397 0.6111986 0.5563272 1.0176895 -0.42938286
-0.17672211 0.71803534 0.38608122 0.17023104 0.25268948 1.2144243 -0.0012503723 -0.28959024
-1.3898202 -0.09761294 -0.5715114 0.4550457 0.69266856 0.08694759 -0.37111706 0.50356346
0.20853423 0.588827 0.092047535 0.57949245 0.8406834 0.46749556 0.3365268 0.052274734
1.6675508 1.4057193 -1.1901743 -1.0433198 -0.12975702 1.5599415 0.6245321 0.5494263
1.0888207 0.017707763 -1.7224991 0.88273704 -0.3580249 0.9854203 -0.6549718 0.6074309
-0.87179595 1.2970139 1.6264956 1.2210622 0.09814586 -0.0600419 -0.7219453 -0.02616801
0.17393686 0.8398058 -0.36029962 1.5868733 -2.3656442 -0.39827862 -1.1403024 0.77485925
-1.8128619 0.21803132 0.023712264 -0.32999134 0.2736003 -0.6971142 0.16675536 -1.0434479
-1.6124161 1.3255734 1.2057605 0.06892142 -1.5213583 0.68273026 0.8656518 1.9674176
-0.007814396 0.03137916 -0.8828473 0.043369785 -0.88894206 -1.5175508 -1.0835571 -0.49848402
-0.49483725 -1.4320033 -1.8377582 0.12195218 0.97571605 -0.53014725 0.67178655 0.6771221
1.179434 -0.2777867 0.648028 0.10387268 -0.8395792 0.58557075 0.36562797 1.3985571
0.60716075 1.7711976 -0.51375246 -0.74320084 0.17662026 1.0193763 1.2462634 0.43861577
-0.77704287 -0.97412 -0.47209066 -0.5649358 0.147197 0.42042542 -0.14144903 -2.2115145
-0.47303367 1.2212931 -1.115711 1.5386183 0.13861474 0.07578679 0.82902956 1.1279814
0.28125295 1.5438254 0.101571254 -0.8765193 -0.5222168 0.46627226 0.5289347 2.1511497
-0.14843193 -0.5862222 -1.8565596 -1.1780775 -0.16931945 -0.09520983 0.26587108 0.43816477
-0.88626075 0.26344794 -0.5140142 0.44123954 -0.8316624 -0.025866892 -0.33694363 1.3962947
1.1975249 -0.68197066 0.81452894 0.4893234 0.6161246 0.6543846 0.531372 0.15427038

weight f4 [2617, 6]
00000000: 0000 0000 0000 0000 0000 0000 0000 0000
00000010: 0000 0000 0000 0000 92c5 e83f 7414 8d3f
00000020: b3e0 bc3f 41d0 f8be 015c 49bf 84c1 ffbf
00000030: 1d7e 9d3e 8282 833e cee0 b3ba abc5 f1be
00000040: 1c99 a2bf 85da 6dbf e4fc 193f 562b 2bbf
00000050: 0140 2040 6ddb 3e3e aca8 803f 8def febd
00000060: 751d 163e aa10 233e 569b 2e40 bb54 81bf
00000070: 25e8 353f 3ba1 943c db6a 2b3e 3a83 673f
00000080: 9fa6 32bf a6d7 563f 2f2a a23d 1a0b c83e
00000090: 76b9 103f a552 893f 0bb8 f63d c9fe bdbf
000000a0: 4156 a43f 9e32 8f3f 30a2 d8be d95a 06be
000000b0: a855 b03f 86c6 3a3f 8749 a03f 8bc7 4cbf
000000c0: bf4f c83f 7e0a 0040 6602 dcbf ce9f 19be
000000d0: 764e 77bf 9c0a 4f40 d77e 32bf acbf 123d
000000e0: 10f9 c8be d308 a4bd dc75 c0bf 48bf 143f
000000f0: 9b69 bc3f 69e1 833e 270d 8a3e 0de0 173f
00000100: 805d 0140 d372 1a3e 6be9 efbf c0f9 be3f
00000110: 1245 bcbf 4aad d6be ea53 073e feac 7a3f
00000120: 6c26 a13f 7faf 853f 164a 18be 1a79 debe
00000130: 6584 c73d 2fa7 b2bf 79e3 bbbf eb57 d83e
00000140: 3880 623f 2e14 b13e 7879 e6bd 1f85 5ebf
00000150: 7b5f 01bc 9a66 35bf 6891 8fbe da06 5dbe
00000160: fb83 02c0 654e b13f e2c3 803f 3060 0d3f
00000170: b6ca e23e 33c7 1bbf 461a 2d3f 336c 7d3f
00000180: a0d9 01be 0878 07bf 48ca b0be e984 af3f
00000190: 7846 2c3f 702a 40bf 77ce a0bf ff99 ce3e
000001a0: 919f 1740 8c8f 5dbf c28a 913e 3b2c 5cbf
000001b0: 8bc6 2dbf 5176 eb3d 3e79 cf3f de71 50bf
000001c0: 39ac d63f 1d75 13bf 54c4 b43c d920 9e3d
000001d0: 5242 4840 8e38 163e 530c 443e 58fa ba3e
000001e0: a570 53be 0c60 c3bd 93e7 70bf fb70 ff3f
000001f0: 2531 0dbe 90db 47bf dd7c ecbe f98e 543f
00000200: f268 dbbf b721 44bf 2e62 503f 6953 9d3e
00000210: b1b4 76bf 186b 343f bee6 60be 9af2 44bf
00000220: 0835 8fbe d09f ad3f df6f 1040 51e8 9b3f
00000230: e537 b53f 882a d7bf a809 debf 2f04 3cc0
00000240: 1ae3 7a3f 3dff a63f 7519 26bf 0466 11bf
00000250: cc28 54bf a678 b0bf aa70 abbf eece ff3e
00000260: 6939 973f 70df 6d3d 3d87 18bf 8989 a93f
00000270: a26a 3a3e bafb e0be 33d2 abbe 10b3 973e
00000280: 9a57 a73e 64cb 6fbf c1ca 2e3f 44c2 29bb
00000290: 7596 30be b8a5 b53e c13a 67bf bb3c d13e
000002a0: 7025 843f ef4f 8c3b fca1 27bf f587 6e3b
000002b0: 393a 06bf aaca 5dbf e2eb 783f f073 eb3f
000002c0: c896 a5bf e477 8fbf aeca 14bf a59b b43e
000002d0: e31d 1ebf 529e 903f 8e28 52bf a32e c03d
000002e0: b41b 5fbf dedf 55bf 25f6 09bf e4ca 8e3e
000002f0: 8afb 5a3f eab7 483d 1de3 b1bf 31d1 013f
00000300: 1cb9 fe3e f06b ffbf 0467 bbbe 4176 513f
00000310: b426 97be 5012 9b3f a53c 873e e9c1 123e
00000320: e33f 053e afd7 aa3d 4e9c 0fbf 867e 933f
00000330: b494 d3bf a92e e93e 93c6 903e abf4 253f
00000340: 0fdc 4cbf b096 6340 be2c f33e d064 42be
00000350: 5921 8ebf 1f6b ba3d 0fcd 8f3e baa2 49bf
00000360: 07a8 11bf e0dd cd3d 9a51 6b40 9e81 923b
00000370: eccd 85be 1c47 2040 e412 803f d5b0 9f3e
00000380: 0f7f dd3e f3a4 31bc d259 debe 4ce1 86be
00000390: ac9b 6c3f 2eb6 4bbf 5480 8cbf ff1d aebe
000003a0: c2b9 0040 edef a23f 9e48 11be 25b9 dcbf
000003b0: 41bd b83e e0a5 a5be 0fea 0fc0 18dd 503e
000003c0: a575 b8be 16e4 54bf cf15 4e3e a273 523f
000003d0: 83a2 183f a2d9 0740 eaa6 473f 6123 59be
000003e0: d4ad e33d e10d e23f e54f 9bbf 9185 53bf
000003f0: 6468 b5bf fd2c b5bf f2b4 05bf 8e10 68bf
0.0 0.0 0.0 0.0 0.0 0.0 1.8185294 1.1021867
1.4756073 -0.48596385 -0.7865601 -1.9980931 0.3076028 0.25685507 -0.0013723613 -0.4722112
-1.2702975 -0.9291156 0.60151505 -0.66863 2.5039065 0.18638392 1.0051475 -0.124480344
0.14659674 0.15924326 2.728231 -1.0103983 0.7105735 0.018143287 0.16739981 0.9043461
-0.69785494 0.83922803 0.07918202 0.3907097 0.5653299 1.0728346 0.12046822 -1.4843379
1.2838823 1.1187322 -0.4231124 -0.13120593 1.377614 0.7295917 1.2522439 -0.7999198
1.5649337 2.0006404 -1.7188232 -0.15002367 -0.96604097 3.2350225 -0.6972479 0.035827324
-0.3925252 -0.080094956 -1.5035968 0.5810437 1.4719728 0.25757912 0.2696316 0.5932625
2.0213318 0.15082864 -1.8743109 1.4919968 -1.4708579 -0.41929084 0.13215604 0.97920215
1.258985 1.0444182 -0.14872012 -0.43451768 0.09742049 -1.395727 -1.4678794 0.42254576
0.88476896 0.34585708 -0.11253637 -0.86921877 -0.0078962995 -0.7085968 -0.28040624 -0.21584645
-2.0393054 1.3852049 1.0059779 0.55224895 0.4429528 -0.6085083 0.67618215 0.98993224
-0.12680674 -0.5291753 -0.34529328 1.3712436 0.67295027 -0.75064754 -1.2563008 0.40351865
2.3691142 -0.8654716 0.28426176 -0.8600499 -0.6788108 0.114971764 1.6208875 -0.8142375
1.6771308 -0.57600576 0.022066273 0.07721109 3.1290479 0.14670011 0.19145326 0.36519122
-0.20648439 -0.09539804 -0.94103354 1.9956354 -0.13788278 -0.780694 -0.46189013 0.8303066
-1.7141402 -0.76613945 0.8139981 0.307277 -0.96369463 0.7047591 -0.21963021 -0.7693268
-0.27970147 1.3564396 2.256828 1.2180272 1.4157683 -1.6809855 -1.7346697 -2.9377553
0.9800278 1.3046643 -0.64882594 -0.5679629 -0.8287475 -1.3786819 -1.3393757 0.49962562
1.1814395 0.058074415 -0.5958136 1.3245097 0.1820474 -0.43942052 -0.33558807 0.296288
0.32684022 -0.93669724 0.6827813 -0.0025903145 -0.17244895 0.35477996 -0.90324026 0.40866646
1.0323925 0.0042819898 -0.65481544 0.0036396955 -0.5243259 -0.86637366 0.9723493 1.8394756
-1.293664 -1.1208463 -0.58121765 0.35274997 -0.61764354 1.1298316 -0.8209313 0.09383895
-0.87151647 -0.8354472 -0.5389121 0.27889168 0.8554007 0.04900352 -1.3897434 0.50709826
0.49750602 -1.9954815 -0.36602032 0.81821066 -0.29521716 1.2114964 0.26413456 0.14331783
0.13012652 0.0834192 -0.5609788 1.1522987 -1.6529756 0.4554341 0.282765 0.6482646
-0.8002328 3.5560722 0.47495073 -0.1898377 -1.1103927 0.09102463 0.28086135 -0.78763926
-0.56897014 0.10052085 3.6768556 0.004471018 -0.26133668 2.5043402 1.0005765 0.311896
0.43261 -0.01084255 -0.43427902 -0.26343763 0.92425036 -0.7957486 -1.0976663 -0.3400726
2.0113378 1.272947 -0.14187858 -1.7244002 0.3608189 -0.32353115 -2.2486608 0.2039684
-0.36027256 -0.8316053 0.20125507 0.8220769 0.59622973 2.1226583 0.77989066 -0.21204902
0.111171395 1.7660486 -1.2133757 -0.8262568 -1.4172482 -1.4154354 -0.52229226 -0.9065026

weight f4 [2617, 8]
00000000: 0000 0000 0000 0000 0000 0000 0000 0000
00000010: 0000 0000 0000 0000 0000 0000 0000 0000
00000020: b6f4 ba3c 715a 1fc0 6ecb 043e d484 f93e
00000030: 0e93 a33f 1f4e b7bf 1c92 abbe 27ba 88bf
00000040: 5041 b9bf e014 a23f 4f57 1fbf a0a3 7e3c
00000050: 8295 a13f 70e7 02c0 a0c9 11bc 4519 fa3e
00000060: ebd9 9f3f 2609 8cbe efbb a7bf 6271 993f
00000070: c98c d03e 9787 13c0 109d 9d3f 4c92 17bf
00000080: cfee 53bf 4d54 3c3f 8a1f 0140 00ca fd3e
00000090: c8c1 71bf 1020 7a3f 09f2 b23f 03c6 32bf
000000a0: 3ef2 393f 6328 623f bc68 a43e 5acf 753d
000000b0: ea5d 19be a10f 09c0 58dd 9d3e 5a8f 1cbf
000000c0: 8ed1 a3bf a345 383e 8317 5f3f e640 ea3e
000000d0: 75c2 183e 9a03 9abf a793 8ebf fe9a 8b3f
000000e0: d494 883e 4d95 293f dfc5 c53e 0426 af3d
000000f0: 5810 e23d 649f 763f 36c3 82bd 2c7a b43f
00000100: 402e b63e 812a dbbf 0180 a83f 9114 8cbf
00000110: 39ff 9a3f 0f38 6c3f 7888 cebe 79ff 0fbd
00000120: 8980 63bf ba02 a1bf a55e 68bf b713 e13e
00000130: 654a 97bc 31b8 0d40 9691 a2be f094 643e
00000140: 35b3 efbd d2b4 d3bf 81fa 2ebe 9ac9 1abf
00000150: 7650 e1be 351c 84bf 5c20 d2bf 8dde 723e
00000160: 63a4 733f 773d 793e 93c5 d13e cf70 203f
00000170: 9fd7 5f3f 84ed 8d3f 8f0d 91bc 8a0b 32bf
00000180: 08fa 45be 1b3f 84be 59e5 86be 0482 113e
00000190: 09f6 90bf cd3b 76bf 1e73 d1be 1eea cdbe
000001a0: 4216 4b3e ef44 913d 531e c7bd 76cc 013f
000001b0: 3b7a df3e 7bba 313e 7bb7 ac3d 0aa1 083d
000001c0: eb33 3a3e 4e7a 90bf 921a 0140 098a 79bf
000001d0: b15b 82be 96e5 643f b2c3 ec3e 380c 143f
000001e0: 301c 01be c4af dc3e c358 d83e a881 c43e
000001f0: b438 c8bd f82c 92bf 3bfe 563e 86f2 273f
00000200: 0949 043f 4907 bdbf f1f8 5a3f 72c2 353e
00000210: 46b9 d33f 1fd6 7cbe a4a5 9ebe 0adf 3b3f
00000220: 13ea 74bf a3f1 603f fd44 d53e 351e c13e
00000230: 88ac 3a3f 2d5a f33e 0513 0340 077f 5a3f
00000240: 2542 0fc0 a48c c4be 952e a8bf 4bdd de3f
00000250: 0410 0ac0 86d8 a2bf fde3 3a3e 6bd1 18bf
00000260: 16a7 2fbf 1584 e1be 1b70 31bd efe1 803f
00000270: 0b1b f43e aa5e a23e a851 223e 2734 c23d
00000280: e6d8 3cbf 3e61 88bc d726 d4bf ec7a 143f
00000290: 315b 72bf b5ef 863e 254d 53bc 551f e03e
000002a0: da0b 43be 1a12 f83e 4b3f 8fbf a68e 163e
000002b0: e318 84be 38c3 88bf 929a 823f 65e2 15bd
000002c0: c571 a3bf 4e78 9bbf 99cf 8c3f 3860 acbf
000002d0: 30b6 e23e 2322 0240 b239 1d3f 5ad5 ad3e
000002e0: f305 9cbe aa49 60be 4663 9cbf 33ca 053f
000002f0: bda5 d8be a225 39bd db4c 0cc0 032b 6a3e
00000300: 26bb c3bd 8881 43bf c63a 983d c3b1 a13d
00000310: b6ac 2c3e 8747 d53f f4a0 473f eb5b 873d
00000320: ac1b 423f 572b 8a3c a4b0 553f ce22 12c0
00000330: ae04 4e3f c848 953e 002a a0bf 380b 06bd
00000340: e3d9 f03f 0905 533e cda1 a7bf 5f7b 483f
00000350: 1c3a 173f 306f 6fbf db93 08bf 560a 2c3f
00000360: d127 7b3f 289f a8bf df5b c23e b104 0640
00000370: bb78 2cbf 7527 50bf 362c 503f 4f55 e0bf
00000380: be0e 1e3e ec2a 893f d884 053e 0b02 c1be
00000390: bd5b acbf fcbf 44bd 2219 4cbe ad13 d43f
000003a0: afc5 44bf 9ca3 98bc 9126 7ebe 79ad 88bd
000003b0: 5ae6 b3bf f2de 763f 5a52 c8be 0ed4 ca3e
000003c0: e434 e3be 1471 95be d344 223f bf78 cdbc
000003d0: 35a7 4c3e ede4 693f 3409 583f 6b7e b0bc
000003e0: f6a8 0940 c406 ed3f 3b01 43be 6ad1 87bf
000003f0: 2079 2fbe 893d 81bf 6593 32bf 67f4 f6be
0.0 0.0 0.0 0.0 0.0 0.0 0.0 0.0
0.022821765 -2.489895 0.12968227 0.48734152 1.2779253 -1.4320716 -0.3350991 -1.0681809
-1.4473057 1.266262 -0.622426 0.015541941 1.2623751 -2.0453758 -0.008898169 0.48847404
1.2488378 -0.2735073 -1.3104228 1.1987727 0.4073241 -2.3051507 1.2313557 -0.59207606
-0.8278627 0.7356613 2.01755 0.49568176 -0.9443631 0.97705173 1.3980113 -0.6983339
0.7263526 0.88342875 0.32111156 0.0600122 -0.14977232 -2.141579 0.30832934 -0.6115624
-1.2798326 0.17995314 0.8714525 0.4575264 0.1491793 -1.2032349 -1.113881 1.0906675
0.26676047 0.6624344 0.38627526 0.08552173 0.110382736 0.9633696 -0.0638489 1.4099784
0.3558216 -1.7122346 1.3164064 -1.0943776 1.2109138 0.9227304 -0.40338492 -0.035155747
-0.88868004 -1.2578957 -0.90769416 0.43960354 -0.018468091 2.2143672 -0.31751698 0.2232244
-0.11704103 -1.6539557 -0.17087747 -0.6046387 -0.440067 -1.0321108 -1.6416125 0.23717709
0.9517271 0.24339853 0.4097105 0.6267213 0.87438387 1.1088109 -0.01770666 -0.6954886
-0.1933366 -0.25829396 -0.26346853 0.14209753 -1.1325084 -0.96185 -0.4090814 -0.4021768
0.1983271 0.07093226 -0.09722581 0.5070261 0.43647942 0.17356293 0.084334336 0.033356704
0.18183868 -1.1287324 2.0172467 -0.9747625 -0.2546058 0.8941282 0.46243054 0.57831144
-0.12608409 0.4310285 0.4225522 0.3838017 -0.0977644 -1.1419973 0.20995419 0.65604436
0.5167394 -1.4767848 0.85536104 0.17749956 1.6540916 -0.24691056 -0.3098575 0.73387206
-0.9566967 0.8786871 0.41654196 0.3771836 0.7291951 0.47529736 2.0480359 0.8535008
-2.2384121 -0.3838855 -1.3139216 1.7411283 -2.1572275 -1.2722328 0.18251033 -0.59694546
-0.6861433 -0.44046083 -0.043319803 1.006895 0.47676882 0.31712848 0.15851462 0.094826035
-0.7376846 -0.016647931 -1.6574353 0.58000064 -0.946704 0.26354757 -0.012896811 0.43773904
-0.1904749 0.4845131 -1.119119 0.14702854 -0.25800237 -1.0684576 1.0203421 -0.03659286
-1.2769095 -1.2146089 1.1000854 -1.3466864 0.44279623 2.0333335 0.6141616 0.33951837
-0.3047329 -0.219031 -1.2217796 0.52261657 -0.42313948 -0.045201905 -2.192191 0.2286797
-0.0955718 -0.76369524 0.07433085 0.078952335 0.16862759 1.6662453 0.7797997 0.06609329
0.75823474 0.01686637 0.8347266 -2.2833743 0.8047589 0.2915709 -1.2512817 -0.032725543
1.8816494 0.2060739 -1.3096253 0.7831325 0.5907304 -0.93529034 -0.5335061 0.6720327
0.9810763 -1.3173571 0.37960717 2.0940363 -0.6737172 -0.81310207 0.8131746 -1.7526034
0.15435311 1.0716224 0.13038957 -0.3769687 -1.3465496 -0.048034653 -0.19931462 1.6568505
-0.7686414 -0.018632703 -0.248194 -0.06673712 -1.4054673 0.9643394 -0.3912533 0.3961491
-0.4437629 -0.29187834 0.6338627 -0.02508199 0.1998566 0.9136494 0.8438904 -0.021544656
2.1509376 1.851769 -0.19043438 -1.0610783 -0.1713605 -1.0096904 -0.69756156 -0.4823334

weight f4 [88, 8]
00000000: 0000 0000 0000 0000 0000 0000 0000 0000
00000010: 0000 0000 0000 0000 0000 0000 0000 0000
00000020: bcc8 cabe ba14 78bf 6e8d 2fbf 330e 843e
00000030: e9e3 88be a9e2 fa3f c5b0 c93f fda0 913f
00000040: cd3c 9ebe d615 763f 1c1d c53f 155a c53e
00000050: 1d77 ebbe 71cb 58be e557 e93f 20d4 ec3e
00000060: 2ce4 093f 34a4 eb3d fc98 8e3e a27a adbf
00000070: 9648 4d3f 0275 f2bf fcdd b93f c884 243f
00000080: ac39 f2bf 47be 56be b033 cabf eac6 0a40
00000090: 88fc 12bf 4906 7f3f 19d1 debc 4a74 5cbd
000000a0: f594 503f c493 063f ed44 edbf dd04 e23e
000000b0: 0a2f c5bd 5df1 933f 97cd 7c3f b1b3 d53f
000000c0: b643 febe 1738 7dbf a2b0 9ebf d468 84bf
000000d0: 0f88 e83d 083f 1dbf 5bf4 f6be b7e2 ca3f
000000e0: a50b a23e 805b 2d3f 9617 1cbf fd60 363f
000000f0: 29e2 1840 3836 d5bf 119e ca3e 4e6a 913f
00000100: 3a76 dfbe cc3c c6bf 1b6a 783f 15b9 1a3f
00000110: 4e23 a1be 4a73 3bbc ab55 b6be 8ce7 c23e
00000120: d8d6 8b3e 09da 2040 a4ee 203f e4b8 2b3f
00000130: dbc2 783e 5402 0cbf bcde 6b3f 8556 2b40
00000140: 1646 083f c562 02c0 9183 9ebf 73f5 eabf
00000150: 83df 4f3f 4cc4 06bf 9b32 04bf 327e 52be
00000160: 36cc 9bbf f1f5 10bf 99e3 ca3f 23ff aebf
00000170: 470e c43f aff4 4a3e d7af 863e 1a51 0740
00000180: 5503 22bf 0857 593e 1638 683f f530 5b3f
00000190: 8671 be3e eba1 a43c 4fa9 5fbf e429 b53f
000001a0: 0af2 893f 482b 2f3f 0640 683e 1eab 31bf
000001b0: 4df9 8e3e bb29 35c0 7871 8c3f 8d66 95bc
000001c0: fbe2 84bf 2fcf 003f 6b63 063f 304b 69be
000001d0: b59e 933f 78c0 d1bf 8b90 d13e 3508 133e
000001e0: 6825 4f3f e3da 01bf cd43 e13e 2410 ecbc
000001f0: 0a94 c9be c1b3 953e b54f 17c0 c0f8 2f3e
00000200: c745 9b3c 14c7 953e 493f 5fbf 2f2e 96bf
00000210: 1452 ddbe ad2f d23f c25b 6c3f 1636 a63f
00000220: 8cc9 843f fe1d 1bbf 77af 1a3f a420 54bf
00000230: eff5 1bbf 7336 ebbf 4164 b63f ec0f e93e
00000240: c943 7e3e df18 48bf 7111 dd3e 093d 4d3e
00000250: 4604 33bf 6a0a 8ebe 8831 e7be 6d1a 1ebe
00000260: b059 e3bf 2161 c23f 96ee cbbf 39f7 c7bf
00000270: dabe c03f 816c 203e d90c 1abf 11ee 82bf
00000280: 8923 543f 1632 1f3f 1e6e c0bf 67b2 d6bf
00000290: d05a 98be 0de6 6abf 8296 733e bd85 d43f
000002a0: 3098 e33f c5cb 0140 ca6c 7fbe 419c 1f3f
000002b0: 4f53 e43f ba32 5c3f 252a 28bf 4bf5 d13e
000002c0: f700 45bf 29d7 75bf a70a 20bf b6ef 423f
000002d0: 9952 e43f 6548 23bf e0fa 42bf 0012 96bf
000002e0: 6c47 7e3f 871a 5cbf 8f06 40bf 71fa 1cbf
000002f0: 8e85 7f3f 96d8 4a3f 1791 b3bf 9031 35bf
00000300: 8fac bf3f d41c 9fbf fab6 db3e 9c3d fbbe
00000310: 739f 83be 8eea 113f ebf0 153d bd01 9c3f
00000320: f19b 02be fb8c 8cbf 3bab 3dbf 3121 a1be
00000330: 3dd1 a5bf c8ae 063e 4434 62c0 9c20 06bf
00000340: bbbf 413e ec52 a63d 7fd5 27bf b8ac 84bf
00000350: 2d54 1a3e 5b6d 3cbe 4165 7e3e 54f3 203e
00000360: 8db2 1f3f 0a7d 1ec0 6544 2ebe 2e22 cd3d
00000370: 0647 7ebe 7469 ec3f 3770 f13e b903 5c3f
00000380: fd9a 023f 6f5e b23f cdd7 dfbe 9bd6 f6bc
00000390: 5239 bcbf f341 9bbe 0728 aabf d9e9 ec3f
000003a0: c5ce 223f d400 d93e acc2 ec3e c491 c33f
000003b0: 4e00 93be 83c8 583f 5791 80be cb38 323e
000003c0: c9c2 9f3f c5e6 aeba f708 19bf cd27 303d
000003d0: e841 00c0 94f2 9dbf a6be 8ebf 74c4 dc3e
000003e0: 2a18 81be 7cc1 703d 8eed c23f ad4f 83be
000003f0: 0f5e 0a3f 7f68 143f 75b3 f2be b774 7bbf
0.0 0.0 0.0 0.0 0.0 0.0 0.0 0.0
-0.39606273 -0.96906626 -0.6857518 0.25792083 -0.26736382 1.9600421 1.5757071 1.1377255
-0.30905762 0.9612707 1.5399508 0.3854529 -0.45989314 -0.21171357 1.8229948 0.4625559
0.5386379 0.11505929 0.27851093 -1.355305 0.8018888 -1.8941958 1.4520869 0.6426511
-1.892385 -0.20971023 -1.5797024 2.1683908 -0.5741658 0.99618965 -0.027199315 -0.05382184
0.8147729 0.5256922 -1.853666 0.44144335 -0.096281126 1.1558033 0.98751205 1.6695462
-0.49661034 -0.9891371 -1.2397654 -1.0344491 0.11354076 -0.61424303 -0.48233303 1.5850438
0.3164951 0.6771774 -0.6097349 0.7124174 2.3888037 -1.6657171 0.3957372 1.1360567
-0.43644887 -1.5487304 0.97036904 0.6043866 -0.31472248 -0.011441061 -0.35612234 0.3806728
0.2731235 2.5133078 0.62864137 0.67078996 0.24293081 -0.5469105 0.9213674 2.6771557
0.5323194 -2.0372784 -1.2383901 -1.8356155 0.81200427 -0.52643275 -0.5163972 -0.20555952
-1.2171695 -0.56625277 1.5850707 -1.3671612 1.5316857 0.19819902 0.2630603 2.114325
-0.63286334 0.21224606 0.9071058 0.8562158 0.37195987 0.02009674 -0.8736772 1.4153409
1.077699 0.68425417 0.22680673 -0.6940173 0.27924576 -2.830672 1.0972128 -0.018237377
-1.0381769 0.5031614 0.5249545 -0.22782588 1.1532809 -1.6386862 0.4093059 0.143586
0.8091645 -0.5072462 0.4399704 -0.02881629 -0.39370757 0.29238704 -2.36424 0.17184734
0.01895417 0.29253447 -0.8720594 -1.1732844 -0.43226683 1.64208 0.9232751 1.2985256
1.0374007 -0.6059264 0.6042399 -0.82862306 -0.6092214 -1.8375992 1.4249345 0.4551996
0.24830545 -0.7816295 0.4317737 0.20042814 -0.69928396 -0.2774232 -0.45154977 -0.15439768
-1.7761745 1.5185891 -1.5932186 -1.5622321 1.5058243 0.15666391 -0.60175854 -1.0228902
0.8286672 0.621858 -1.5033605 -1.6773194 -0.29756784 -0.9175728 0.23787883 1.6603314
1.7780819 2.028062 -0.24943843 0.623478 1.7837924 0.860149 -0.6568931 0.41007456
-0.769546 -0.96031433 -0.62516254 0.7614702 1.7837707 -0.6378234 -0.76164055 -1.1724243
0.9932773 -0.8597798 -0.7501001 -0.61319643 0.99813163 0.79236734 -1.4028653 -0.7077875
1.4974536 -1.2430673 0.42913038 -0.49070442 -0.25707588 0.5699853 0.03660671 1.218803
-0.127548 -1.0980524 -0.740894 -0.31470636 -1.295448 0.13152611 -3.53444 -0.5239351
0.18920796 0.08121285 -0.65560144 -1.036521 0.15071173 -0.18401091 0.24843313 0.15717822
0.6238182 -2.4763818 -0.17018278 0.10016285 -0.24831781 1.8469682 0.47155926 0.8594318
0.51017743 1.3935069 -0.4371933 -0.030131629 -1.4704993 -0.30323753 -1.3293465 1.8508865
0.63596755 0.42383444 0.46242273 1.5278859 -0.2871117 0.84680957 -0.25110886 0.17404477
1.2481319 -0.0013343921 -0.59779304 0.043006707 -2.0040226 -1.2339654 -1.1151931 0.43118632
-0.25213748 0.05877827 1.5228746 -0.25646725 0.5404977 0.5797195 -0.4740254 -0.9822497

weight f4 [798, 4]
00000000: 0000 0000 0000 0000 0000 0000 0000 0000
00000010: c837 b9bc d0af afbf 4b75 173f 56eb 463f
00000020: 83b5 e43f 1eb1 10bf da73 b93d 77a0 ce3f
00000030: 8cde 23bf a220 f83e 3f7d dfbe a3ee 4abf
00000040: 14d0 67bf a841 7f3f bbd0 c8bf 5730 6bbf
00000050: 662b 3abf 64e8 b5be c920 11bf bd5b 0e3f
00000060: 463e 473f 117d 533e 5ee3 463f da8e 08c0
00000070: d889 503f 67c0 aa3f 4e6e 933e 74d3 c0bf
00000080: 2f99 03bf f2b2 32bf 8b99 51be f7e2 0b3f
00000090: 3c71 24c0 b1c8 8f3f f084 aabf 362e 8e3f
000000a0: a6a7 4abf 0356 f23e 3e4e 9bbf a158 9cbe
000000b0: 7def b53d cb1d 8c3e 699a 303f a5ad ef3e
000000c0: 6cd1 69bf 04a9 f9bf e37d fabf e213 9ebe
000000d0: 92de b7bf 5be8 4abe 78b2 a6be 0a35 dc3f
000000e0: 632a 013f dc7f 02c0 f92e aa3f 9edb dabf
000000f0: e19c 7ebf e228 7fbe a526 fdbf 16c9 ff3e
00000100: e347 afbf 5c5f 9fbd 216f 99be ca81 6a3e
00000110: 261c fe3e 0a74 6cbf b983 8ebf 47d2 973f
00000120: eb89 06bf e8f2 463f 8cb0 6e3f c6c4 87be
00000130: 1d2e 79bd e96a c9bf ab63 d43e d78d 3bbe
00000140: fbc7 8abd 968b e0bf d426 ecbf 0331 fb3e
00000150: 217e 12bd ba3c 893e ff84 40be 6d02 a53f
00000160: 3dc3 60bf 17d1 fbbe c3fa 85be b361 cfbe
00000170: 9607 4b3f a9ac b2be 559b bd3f efc4 b8be
00000180: 6726 01bf c627 ccbe e533 69be d78c 5bbf
00000190: f414 6cbc b1b6 7fbe c8fe e4bc f48e a4bf
000001a0: 08c0 2b3f f788 4ebf a8cf f3be 3f91 553f
000001b0: 2e16 833f c5b8 ec3e fbde 08bf 6446 3fbf
000001c0: d667 f33d 1014 8cbe 3b44 0240 17ed 8c3f
000001d0: eae5 4abf 1954 91be 0369 923f 932d 38bf
000001e0: 1192 82bf b930 86bf 982b 02bf ce1a 78bf
000001f0: 6d0b 2cc0 4475 e93d 431a ccbe 4d16 9abd
00000200: 4e64 523f 616d dc3f 4283 e2bf 0ffe fcbf
00000210: 2348 49be d333 543f f438 87bf 01c6 ca3d
00000220: 4217 2fbe 79f3 163f ad32 dfbe 1ef5 26c0
00000230: f4d5 02c0 847a 4cbe 9b59 1140 9d69 cbbe
00000240: e139 5c3f 9db4 3d3e 9306 15bf 6db4 9bbd
00000250: d0e8 6b3f a1a9 e3bf d908 a4bf ce11 87be
00000260: 3129 0040 e2cf 87bf a38a a4be 10e5 94bf
00000270: fd03 9ebe b41f 2a40 eccd f4bf 34d1 9abd
00000280: 169e 9c3f 151b 80bf 6ec6 ee3f 90ca f93e
00000290: 2ff5 39bf 9f3c 73bf d8d4 90bd b03c 59bf
000002a0: a262 a2bf 0823 b33b b6f1 e23e 4c48 21c0
000002b0: ced2 57bf 3b53 273d 917f 2fbf 0143 b53f
000002c0: 2f04 a9bf d854 37be 6949 a0be 0090 963e
000002d0: 029b 663e 5ce8 083f 7705 cc3f a7f1 b43f
000002e0: 631a 2240 0f10 4fbe 0cd0 69bf 136b 85bf
000002f0: bb5f 5bbb cbf2 07c0 9223 103f 4698 7d3f
00000300: 7ef2 7e3f 86bb fe3f ceba ba3f e9ea b63e
00000310: 01b8 993f 9475 e9bf 8a30 a13e 4950 7ebf
00000320: 2cd9 8cbd e1b0 47bf bd2e ccbf 9711 a1be
00000330: 8ee7 7dbf 4438 c63e 114d 96be bd9d 0a3f
00000340: 0e75 663b c281 c7bf 65f1 31bf 97b9 e63e
00000350: a710 f43e 4e32 ac3d ca01 473f 0b21 1cbf
00000360: 7bd0 7f3f bbd4 ce3e 3e0d 553f 7771 65be
00000370: 7037 743f 5f64 acbf 6d13 1d3f 8518 9d3e
00000380: 8b0f 263f 19d8 943f 0a78 043e 0d66 973d
00000390: 8d21 993f 10cf 08bf b409 b83e 5bc2 d73e
000003a0: 142f 17be 32da ee3e dc5e 953e b1a0 af3f
000003b0: d773 59bf 2103 1a40 39a5 13bf 97d4 9d3e
000003c0: 2693 febf 1da7 52bf 041f abbf e332 203e
000003d0: 0bd2 25bf b4e7 adbf fff7 5bbe 4c47 9bbe
000003e0: 94cc 0c3e bdec 5a3f 2aac 953f d230 f6bf
000003f0: 82e6 96be e319 b1bf 205f 4fbc bbad 033f
0.0 0.0 0.0 0.0 -0.022609606 -1.3725529 0.5916335 0.77702844
1.7867893 -0.5652026 0.090553 1.614272 -0.64011455 0.48462397 -0.43650243 -0.7927038
-0.9055188 0.9970956 -1.56887 -0.91870636 -0.7272247 -0.35528862 -0.5669065 0.5560873
0.77829397 0.20653178 0.77690685 -2.133719 0.8146033 1.3339967 0.28795093 -1.506453
-0.51405615 -0.698043 -0.20468728 0.54643196 -2.5694113 1.1233121 -1.3321819 1.1107852
-0.7916206 0.47331247 -1.2133253 -0.30536368 0.088835694 0.2736648 0.6898561 0.46812168
-0.9133518 -1.9504704 -1.9569668 -0.30874544 -1.4364798 -0.19815199 -0.32558036 1.7203686
0.504553 -2.039054 1.3295585 -1.7098272 -0.9945813 -0.2491794 -1.9777418 0.49958104
-1.3693813 -0.0778186 -0.29967597 0.22901073 0.4963085 -0.9236456 -1.1133949 1.1861047
-0.52554196 0.77714396 0.9323814 -0.26517314 -0.060834993 -1.5735751 0.4148229 -0.18315826
-0.067764245 -1.7542598 -1.8449349 0.4906083 -0.035764817 0.26804143 -0.18800734 1.2891365
-0.8779791 -0.4918296 -0.26167879 -0.40504226 0.7930845 -0.34897354 1.4813029 -0.36087748
-0.5044922 -0.39874095 -0.22773702 -0.8576178 -0.0144092925 -0.24972035 -0.02795352 -1.2856126
0.6708989 -0.8067774 -0.47619367 0.8342475 1.0241144 0.46234718 -0.5346524 -0.7471678
0.118850395 -0.27359056 2.0354145 1.1009854 -0.7925707 -0.28384474 1.1438297 -0.7194454
-1.0200826 -1.0483619 -0.5084777 -0.969159 -2.6881974 0.1139932 -0.39863786 -0.07523785
0.821843 1.722088 -1.7696307 -1.9765033 -0.19656424 0.8289158 -1.0564256 0.099010475
-0.17098716 0.5896526 -0.4359335 -2.6087108 -2.0443087 -0.19968611 2.271094 -0.39729014
0.86025816 0.1852593 -0.58213156 -0.07602773 0.9215212 -1.7786142 -1.28152 -0.2638077
2.0025141 -1.0610316 -0.3213702 -1.1632404 -0.30862418 2.658185 -1.9125342 -0.075594336
1.2235744 -1.0008265 1.8654306 0.48787355 -0.72639745 -0.95014375 -0.07071847 -0.84858227
-1.268635 0.0054668225 0.44325036 -2.5200377 -0.8430604 0.04085086 -0.68554026 1.4161073
-1.3204402 -0.17903459 -0.31306008 0.29406738 0.22520068 0.5347955 1.5939168 1.4136246
2.5328605 -0.2022097 -0.9133308 -1.0423301 -0.0033473808 -2.124194 0.56304276 0.99060476
0.99588764 1.9900978 1.4588258 0.35726097 1.2009279 -1.8239007 0.31482345 -0.99341255
-0.0687736 -0.7800427 -1.5951763 -0.31458732 -0.9918145 0.38714802 -0.29355672 0.5414694
0.0035164985 -1.5586474 -0.69508964 0.4506347 0.47668955 0.08408032 0.77737105 -0.6098792
0.9992749 0.40396675 0.8322333 -0.22406565 0.9539709 -1.3468131 0.61357766 0.3068277
0.64867467 1.1628448 0.12936416 0.073925115 1.1963364 -0.5344095 0.35944903 0.4214047
-0.14764053 0.46650845 0.29173934 1.3720914 -0.8494238 2.406441 -0.57673985 0.30826256
-1.9888656 -0.82286245 -1.336884 0.15644412 -0.64773625 -1.3586335 -0.21481322 -0.30327833
0.13749915 0.85517484 1.1693165 -1.9233649 -0.29472739 -1.3836025 -0.012656957 0.51436967

weight_ih_l0 f4 [52, 26]
00000000: b1e3 c8be cc99 6c3e 11b6 85be 4668 dc3e
00000010: 291e c73d f62e 93be deba 56bd a05a 52bd
00000020: 9221 4fbe ce42 bbbe f578 dd3d bc04 babd
00000030: b769 763e f246 a63e d08e d63d 9835 d13d
00000040: f665 ce3e febf c63e 462f 03be dcfe 673e
00000050: 598d 1cbd 190b 333d 68a8 0d3e 123f 543e
00000060: 8749 1e3e 66b4 80bd 1509 6ebe 530a be3b
00000070: 6532 463f a43e bb3d 6640 33bf 165a 843e
00000080: 2810 183e 5610 71be 30e3 5cbd 2187 d1be
00000090: 4b5d bc3c 2214 70be 0b5d 30bd 7132 d8be
000000a0: ab1f 373e b67c 99bd 4ac7 02be fa83 b5be
000000b0: 00f2 573d 8c02 30be 151a b0bc 51fe 3c3e
000000c0: 0a6b 54be 20f6 433e 5ac5 783d d18e 143d
000000d0: a5ef e4be 0587 143f ba92 e9be df08 d73c
000000e0: 77f2 a53e f764 0b3e d0f2 c43e 0776 9d3e
000000f0: 0e45 583d 499d 553e 9d0b d23e c1d5 b53d
00000100: 1d90 0d3d 1a3c 513f 751e 60be 9902 d03d
00000110: 8bb7 96be 4a5c 5c3d 28e8 b5ba 8044 9d3e
00000120: 0a10 163e 5761 a73c f736 96be 1c82 9b3e
00000130: d176 b13e 1dd6 84be ce46 573e af3c 4ebd
00000140: e876 a7bd 2582 883c 5bd8 98be f70e 0c3f
00000150: 1a8a 133e 1618 32be a6d1 a8be 096f 64be
00000160: 20e4 ed3e f559 b5be 0e06 a73e 339b a93c
00000170: f09a 6d3e 88c2 b9bd 4085 04bf 815e 523d
00000180: 84ab 0cbf c79c 343e 0a38 623e b313 f93e
00000190: 2541 f9bd 0a93 3a3e 44b9 783e 93a2 42be
000001a0: 8c0b 97be a6fc 0dbd d87c 1fbe 8c5b 4fbe
000001b0: 12a4 1cbe f92d be3e 8adb 6abe 3677 313e
000001c0: 9a72 083e 22d3 3e3e 937c d23c 430f eabd
000001d0: fb2c 983e 665f b63e 636d 5c3d 3a49 33bf
000001e0: 0760 e0be e1af aabd 9753 a1bc 6e4a 12bd
000001f0: 6082 f43c be67 ed3d 53e4 f63d 46e4 e43e
00000200: 9381 ca3d 7292 22be a4a7 04be b17d 9b3e
00000210: 9567 843d 89ff 833e 4292 9a3e 4a16 a93e
00000220: 776c 733e 4681 56be 2a33 ddbe 1753 8a3d
00000230: 947b da3e 9f00 103f e2f9 7e3d 66f9 23bc
00000240: b82f 0dbf 3cd2 78be a2c4 2cbf 9b05 043e
00000250: 62bf 4b3e 4120 963e e2cc d03e 7466 9fbd
00000260: 2b35 13bd 4c7a 4ebe 1f0c 863e 7886 72be
00000270: 2a25 853e 7365 573e 65ed 5d3e 22d6 40be
00000280: 0ff7 8abe d8fd bc3e e696 fc3e 3d99 eebc
00000290: 776f 6fbd 31f2 8fbe a2ef 113e e701 a53c
000002a0: 7d71 95bd 96d3 11bf 4194 d5be 77af 3ebd
000002b0: 2d46 b6be aad5 1d3e b857 183d 063d 2c3e
000002c0: be3f f73d 2f0e 5a3e 6c91 18be 2ec7 dbbd
000002d0: d40d 713e caf5 953c 04f7 22bf e759 873e
000002e0: 6aa0 083f a260 a23b 713d 8b3e c6e5 eb3e
000002f0: 744e e33d b8dc bfbe cc22 9ebd be36 fcbe
00000300: 40e0 a93e 0b3b d33d 5414 ef3e 4b77 013d
00000310: 85a1 61be e386 a2be ffaf e9be c2cd e7be
00000320: 45c0 65be 8dff 6ebc 7700 963e 15bf 183e
00000330: b29d 81bc 9b24 543e 133c 42bd 4bf4 5fbe
00000340: 92f5 04bd dcbc d03e bdfa 933e c2fa 1dbc
00000350: ed39 203e 8113 6dbc 5fb9 bd3d 5ebe 51be
00000360: c0f0 ddbe 2130 8ebe c8de 973c 0af4 56bc
00000370: 1805 d63e 4f90 843e fb1b 823e cfdb 05bf
00000380: 9e84 a63c 8bc5 2cbe fbb4 a2be f46c fc3e
00000390: 6f81 d03e fd7e 2c3d 2012 5bbc 06ea 8d3e
000003a0: 621c b73e 6451 e8be 7676 0cbe 163e 2dbe
000003b0: 9c64 0f3e d473 13bf 1a7b 11be fbc7 6d3e
000003c0: 4df4 423e 5a20 12be 3def b4be 0312 8cbe
000003d0: 2fa4 abbc 47c2 213e 9ca2 c83d 9d84 9ebe
000003e0: 4f0f 73be 7ad6 01be 8a7b 70bf 07e0 04bf
000003f0: 0f2b 43bd 1715 d53d 5e3c 353e 6441 28be
-0.39236215 0.23105544 -0.26115468 0.43048304 0.097225495 -0.28746766 -0.052424304 -0.051355958
-0.2022765 -0.36574405 0.10814086 -0.09082934 0.24063765 0.32476002 0.10476458 0.102153
0.40312165 0.38818353 -0.12811002 0.22655815 -0.038220737 0.043711755 0.13833773 0.20727184
0.15457736 -0.06284408 -0.23245652 0.0057995706 0.77420646 0.09142807 -0.7002014 0.2584998
0.14849913 -0.23541388 -0.0539276 -0.40923408 0.022993704 -0.2344518 -0.043057483 -0.42225984
0.17883174 -0.0749449 -0.12771335 -0.35452253 0.052721024 -0.17188472 -0.021496812 0.18456389
-0.20743957 0.19136858 0.060735084 0.036269013 -0.44714084 0.58018523 -0.45619756 0.026249347
0.32411548 0.13612734 0.384665 0.3075411 0.05280023 0.20860781 0.41024485 0.08878661
0.034561265 0.8173233 -0.21886618 0.101567455 -0.29436907 0.05379895 -0.0013878392 0.30716324
0.14654556 0.020432157 -0.2933881 0.30372703 0.34660962 -0.25944605 0.21023104 -0.05035084
-0.081769764 0.01666362 -0.29852566 0.54710335 0.1440815 -0.17392 -0.3297245 -0.22307982
0.46463108 -0.35420194 0.32621807 0.020703888 0.23203635 -0.09070307 -0.51765823 0.051359657
-0.5494921 0.17637931 0.2209169 0.48647842 -0.121706285 0.18220153 0.24289423 -0.1900733
-0.29500997 -0.034664772 -0.15574968 -0.20249766 -0.15296963 0.3714445 -0.2293531 0.17330632
0.13324967 0.18635228 0.025694167 -0.11428692 0.29721817 0.35619658 0.053815257 -0.7003361
-0.43823263 -0.083343275 -0.019693179 -0.035715513 0.029847324 0.11592053 0.12055268 0.4470541
0.098879956 -0.15876177 -0.12954575 0.30369332 0.06465069 0.25780895 0.3018971 0.33024818
0.23771845 -0.20947751 -0.43203098 0.067541294 0.42672408 0.5625095 0.062250026 -0.010008192
-0.5515094 -0.24298948 -0.6748754 0.12892763 0.19897225 0.29321483 0.40781313 -0.07783213
-0.035939377 -0.2016384 0.26181123 -0.23684108 0.26004916 0.21034794 0.2167259 -0.18831685
-0.27141616 0.36912417 0.49333876 -0.029125804 -0.05845591 -0.28114465 0.14251569 0.020142509
-0.07297037 -0.5696348 -0.4171467 -0.046554055 -0.35600415 0.15413538 0.03719303 0.16820154
0.12072705 0.21294473 -0.14899224 -0.1073135 0.23540431 0.018305678 -0.63658166 0.26435778
0.5336977 0.004955367 0.27195314 0.4607374 0.11098948 -0.37473083 -0.07721481 -0.49260515
0.33178902 0.10313996 0.46695197 0.031607907 -0.22034271 -0.31743535 -0.45642087 -0.45274168
-0.22436626 -0.014587295 0.2929723 0.14916642 -0.015822265 0.20717089 -0.047420572 -0.21870534
-0.032460757 0.40769088 0.28902236 -0.009642305 0.15647097 -0.014469982 0.09263872 -0.20482776
-0.4334774 -0.27771094 0.018538848 -0.013119707 0.4180076 0.2589135 0.25411972 -0.52288526
0.020326909 -0.16872232 -0.31778702 0.49301875 0.4072375 0.042113293 -0.013371021 0.27717608
0.35763842 -0.45374596 -0.13717064 -0.16918215 0.14003223 -0.57598615 -0.14207116 0.23220818
0.19038506 -0.14270154 -0.35338774 -0.27357492 -0.020952312 0.15796767 0.0979664 -0.3096055
-0.23736309 -0.12679473 -0.93938506 -0.5190434 -0.047648486 0.10404413 0.1769881 -0.16431195

weight_hh_l0 f4 [52, 13]
00000000: 4dc3 ff3d e172 e43e 6c77 4e3e 8c10 6fbf
00000010: e5f7 8fbe 5378 d13c 002a 4bbb fd0d 11be
00000020: b6ff 4cbe 0dc6 9fbd 03ad 6c3e acdd d53c
00000030: 8cd9 9b3e 82fe 463d 9637 3dbf 2b24 aa3e
00000040: 3359 c4be aff1 90be 4e7c 80be 590d 893d
00000050: e076 f23e 6a41 f43e 5c80 973e 85a8 713e
00000060: 1b5b a43d e27a 0cbe 6c4f 083e f401 1b3f
00000070: 556f ac3d 5d9b 663e b8e0 443e 3844 413c
00000080: e9cb 8e3e 0a8a 0b3f b879 16bd 79da ca3e
00000090: 483c 4e3e 11e8 073f c60a 063f f9a0 d03e
000000a0: 8251 853e 90d5 7fbc 019b 94be c50a f6bd
000000b0: ce6d 50be d97d db3d 8fa7 4b3b bd7d 03be
000000c0: 3337 8ebe 435a 3abe af56 e1be 006e c13d
000000d0: c525 56be 1cf5 f73d cc36 683d d9d1 8bbe
000000e0: 8cad 17bf 865b d4be ae5c a23e ed2b 443e
000000f0: 5040 923e f64a f63d 98ab 0abf 7095 2bbe
00000100: 8a11 103f 5a86 abbc 7289 da3d 9199 0c3e
00000110: 89fd 443d f964 563d af04 71be 00c7 343d
00000120: fa5d 253e d8b0 f13e b0ed cd3e c2c0 ddbd
00000130: 4a0f 963c e5c1 a43d e30f fdbc 7a4d adbe
00000140: 66d1 fd3e f7fc 8abd f06f 13bf c52c 1cbf
00000150: 74fb 083f e8e2 163f 1fc8 b33d c94d d83e
00000160: f6f9 3a3d 5096 093e 7f05 033d 2e87 debc
00000170: 3bb1 c1be 1787 8e3d 38d5 0a3e 279b e6be
00000180: f592 9bbe f853 c4be 17ba 9f3e d748 c03e
00000190: 2bff a4bc fbe3 4dbd fa97 153f 3028 7bbe
000001a0: c5ce 333f 0453 343f b50f bd3d 409e 9fbe
000001b0: 8a6d 96be 3c90 06bf ed91 c9bd 8736 f9be
000001c0: 0983 bdbe d8c4 82be 14af 133e a5a1 00bf
000001d0: cc0a 8c3e a630 913d a8d0 ac3e 8bae 85be
000001e0: fb29 9fbe 4a6b b3be 5326 84be bb1d e43d
000001f0: 5877 983d 934a 363c 3574 653e 8f5e cf3e
00000200: 0d40 0dbe 6fdc b4bd c4bc 913c 1b57 33be
00000210: bbd8 6ebf d600 833f 9bff 923e 7b20 dc3e
00000220: 67c1 6abe 48d2 d43e 7251 ab3e f346 fdbd
00000230: 85cb 4b3f 2f92 9e3e 2409 1fbf ea0d 783d
00000240: 5d4b 853e 8548 22be 6286 99bd 0c92 ddbe
00000250: e9fa 9bbe 6e12 233d f6d2 a0be 859e 3b3c
00000260: 6334 eebd 53ed a8be d5e0 1e3d 46e2 fc3d
00000270: 6af3 183d 5b8d 4f3d f68a e3be c88b b33d
00000280: d0f5 8d3c 537e 82be 003e 0abe cd30 9abc
00000290: 2964 883d 9b07 79be 524b bc3e a20d cf3e
000002a0: 394a 0cbf 704e 84bd b64d 4fbd 64c0 043f
000002b0: 20a9 92be 8978 493e 6dee 99bd 8be8 ab3e
000002c0: de27 75be c462 20be 0907 bb3c c57b 1bbf
000002d0: 1f17 243e 379a 403e 42d5 813d e57f 4cbd
000002e0: be90 b73e 1f25 643e 9983 923f 6a31 f73e
000002f0: 72a9 5cbe da50 12bf c61b c8bc df9a 9abe
00000300: 70cb 0cbf 9c8f 39be dbd1 b5be 617f 393e
00000310: 24e1 033f cdfc 1b3e 3617 3cbe b9c5 efbc
00000320: e935 143d 91ea d83d 76cf 463e 5643 ad3c
00000330: 9d46 043e a8bf debe 0903 debd ecd2 4f3e
00000340: 835d 8d3e 5051 75be 0e2d 853e ff0d 64be
00000350: b6a9 93be a3bf 82bd 3903 403e 8886 a0bc
00000360: 8742 4a3e 610a a33e 5cc0 c63d 3362 963e
00000370: d41e e2bd 177b f8bd da18 62be 4937 d9be
00000380: 7f60 3a3e 5b1e c2bd 8bf5 0e3e 2911 813d
00000390: 800c 93be 83db 1e3b 32f6 e2bd 8704 3c3e
000003a0: d2e8 92be 4476 0dbf 01fe d0be bc68 5abe
000003b0: fe25 48be f877 043e 1e7b d53d 5a2f 17be
000003c0: e757 2a3d b503 46bf 454a 81bc 78c2 9fbe
000003d0: 6a69 963d 3945 08be cd05 dbbc 31e9 04be
000003e0: 6877 6bbe 4f6c 373e 103f 253e c901 653e
000003f0: 0f91 2a3e 753f 3cbd 8d19 1bbe 7ac9 5c3d
0.124884225 0.44618896 0.20162743 -0.93384624 -0.28118816 0.02557007 -0.0031000376 -0.14165492
-0.20019421 -0.07801447 0.23112874 0.026106678 0.30439413 0.04858256 -0.7391294 0.3323072
-0.38349304 -0.2830939 -0.25094837 0.06691999 0.4735632 0.47706157 0.29590118 0.23599441
0.080251895 -0.13718751 0.13311547 0.60549855 0.084196724 0.22520204 0.19226348 0.01179605
0.27889946 0.54507506 -0.036737174 0.39619806 0.20140183 0.5308848 0.5236019 0.40747812
0.26038748 -0.015614882 -0.2902451 -0.12013773 -0.20354387 0.10717363 0.0031075215 -0.12840934
-0.2777649 -0.18198495 -0.44011447 0.09444809 -0.20912845 0.12107298 0.056692883 -0.2730854
-0.59249187 -0.41476077 0.31711334 0.19157381 0.28564692 0.120260164 -0.5416808 -0.16756225
0.5627676 -0.020938087 0.10670747 0.13730456 0.048093352 0.05234239 -0.23536943 0.044135094
0.1614913 0.47205234 0.40220404 -0.10827781 0.018317837 0.08044795 -0.030891364 -0.33848172
0.4957382 -0.067865305 -0.5759268 -0.6100581 0.53508687 0.5893998 0.087784044 0.42246845
0.045648538 0.13436246 0.031987663 -0.027164068 -0.3783053 0.0695936 0.13557899 -0.45040247
-0.30385557 -0.38345313 0.31196663 0.37555572 -0.020141205 -0.050266247 0.5843502 -0.24527049
0.7023738 0.7043917 0.092315115 -0.31175423 -0.29380447 -0.52563834 -0.09842286 -0.48674414
-0.37014034 -0.25540805 0.14422256 -0.5024665 0.27351987 0.07089357 0.33752942 -0.26109728
-0.31086716 -0.35042793 -0.2581049 0.11138483 0.07444638 0.011126178 0.2240761 0.4050183
-0.13793965 -0.08831107 0.017790206 -0.17513697 -0.93299454 1.023463 0.28710636 0.4299353
-0.2292534 0.41566682 0.33460575 -0.12367048 0.7960742 0.30970904 -0.6212332 0.060560144
0.2603406 -0.15847977 -0.074963346 -0.43275487 -0.30464867 0.039812498 -0.3141095 0.011451368
-0.11631086 -0.32993564 0.038788635 0.12347846 0.037341513 0.050671916 -0.44441956 0.087668955
0.017329127 -0.25487003 -0.13500214 -0.018822098 0.06659729 -0.24319308 0.36776215 0.4044009
-0.54800755 -0.06460273 -0.05061122 0.51856065 -0.28644657 0.19674887 -0.07516179 0.33575854
-0.2394099 -0.15662676 0.022830503 -0.6073573 0.16024445 0.18808828 0.06339504 -0.049926657
0.35852617 0.22279786 1.144641 0.48279887 -0.21549013 -0.5715462 -0.024427306 -0.30196282
-0.5499792 -0.18121189 -0.3551167 0.18114997 0.5151541 0.15233155 -0.1836823 -0.029269086
0.036184225 0.10591615 0.19415078 0.021150272 0.12917562 -0.43505597 -0.10840423 0.20295304
0.27610406 -0.239568 0.26010936 -0.22270964 -0.28840417 -0.06384208 0.1875123 -0.0195954
0.1975194 0.31843856 0.097046584 0.29371795 -0.11041036 -0.121328525 -0.22079793 -0.42424992
0.18200873 -0.09478446 0.13960855 0.06302101 -0.28720474 0.0024239726 -0.11082114 0.18361102
-0.28693253 -0.55258584 -0.4081879 -0.21329015 -0.19545743 0.1293639 0.10423873 -0.14764157
0.041587736 -0.77349406 -0.015782485 -0.31203055 0.07344325 -0.13307656 -0.026736164 -0.1297958
-0.22994769 0.1791241 0.16137338 0.22363962 0.16656898 -0.045958955 -0.15146466 0.05390308

bias_ih_l0 f4 [52]
00000000: 6cd3 b93e 1ddc 853e 0fd3 7a3e b04e 7c3e
00000010: cde0 d73d 7d5f 2f3e fae3 143e 6b9c 373e
00000020: 916b 863d 3d07 04be 1287 af3e d37b 84bd
00000030: 7ca6 cc3d 1154 bdbd 664c ae3e 6b15 813e
00000040: a222 b43d c3a4 8c3c 75e7 7f3e 775c 823b
00000050: 7f29 853e 4eff 663e 48ab 873e a238 b13b
00000060: bccc b8bd 8a50 fa3d 911f 823e 9550 383e
00000070: aa00 143e a572 33be 272c 98be 30c9 81bd
00000080: d067 7d3e 29ff debd 8c85 eabd e1c9 843e
00000090: a842 b8bd 374b 37bd 20e1 893d d0e4 b83e
000000a0: b25f 713e 40a1 eb3e ecf4 263e b3a6 973e
000000b0: 846f 733e feae da3e a76e b93e 37fd 5d3e
000000c0: 7e85 f83e 22f1 143f f527 0b3e 51d8 333e
0.36294115 0.26144496 0.24494575 0.24639392 0.10540924 0.1712627 0.14540091 0.17930762
0.065634854 -0.12893386 0.34282738 -0.0646893 0.09992692 -0.0924455 0.34042662 0.25211653
0.08795668 0.017168408 0.24990638 0.003978308 0.26008222 0.22558329 0.26497865 0.0054083625
-0.09023425 0.12222393 0.25414708 0.1799949 0.14453378 -0.17524202 -0.29721186 -0.063372016
0.24746633 -0.10888512 -0.11451253 0.2593527 -0.08997089 -0.044749465 0.06732392 0.3611207
0.23571661 0.4602146 0.16304368 0.2961937 0.23773009 0.42711633 0.36217234 0.21678625
0.48539346 0.5818044 0.13589461 0.17562987

bias_hh_l0 f4 [52]
00000000: 1c5a 22bc 0dda 9a3d 3d51 343d 75b1 0a3e
00000010: 362d ce3e 75d8 04bd 2a7e df3e 7903 78bc
00000020: 4258 873e 13f5 3dbd 8386 3b3e eb1f c03e
00000030: 6dbe ac3e 6cec 953e 602b 733e b701 8e3d
00000040: 4482 443e 5171 35bd e94d 223d d691 893d
00000050: b059 b53d 1670 213e 3bf6 313e a717 d9bd
00000060: 357f 463e 69c0 873e d6f2 23bd cfce acbd
00000070: e5c9 fbbd bb65 c63c ba38 7abe 10ae 1e3e
00000080: b301 e7bd 7a07 173c 81cf c1be 0a02 663d
00000090: f8ff d63d 020e 653e 4ce0 82be d6cf 933e
000000a0: 952a 9c3e ee80 413c 43d0 763e 5e0c d93e
000000b0: ce95 fc3e 0dd8 103e d7e0 b93d 8621 103e
000000c0: 5f05 013f 5d95 f03e ea59 ec3e b7d3 983e
-0.009909179 0.07561121 0.044022787 0.13544257 0.40268868 -0.032432992 0.43650943 -0.015137547
0.26434523 -0.0463763 0.18313031 0.3752435 0.33739033 0.29281938 0.23747015 0.06933921
0.19190317 -0.04429752 0.039625082 0.06717269 0.08854997 0.15765414 0.17379086 -0.106002145
0.19384463 0.26513985 -0.04002651 -0.08437883 -0.12294368 0.02421843 -0.24435702 0.15496087
-0.11279621 0.009218091 -0.37853625 0.05615429 0.10498041 0.22368625 -0.2556175 0.28869504
0.30501238 0.011810524 0.24102883 0.42392248 0.49333042 0.14144917 0.09076088 0.14075288
0.5039882 0.46988955 0.4616235 0.29849026
