aliyunwei/src/pool_0.pt (torch, 297668 bytes, 11 tensors)

weight f4 [2617, 12]
0	0x00000000	0.0
1	0x00000000	0.0
2	0x00000000	0.0
3	0x00000000	0.0
4	0x00000000	0.0
5	0x00000000	0.0
6	0x00000000	0.0
7	0x00000000	0.0
8	0x00000000	0.0
9	0x00000000	0.0
10	0x00000000	0.0
11	0x00000000	0.0
12	0xbf37f949	-0.71864754
13	0xbf0d659f	-0.55233186
14	0xbf42531d	-0.7590807
15	0x3f40b568	0.75276804
16	0x3fcf8cae	1.6214807
17	0xbe215adb	-0.15757315
18	0xbefb6fd6	-0.49108762
19	0x3ede36f9	0.43401316
20	0xbf3f9eaf	-0.74851507
21	0x3f88460a	1.0646374
22	0x3f4a67c0	0.7906456
23	0x3fd463c7	1.659295
24	0x3fb41c4a	1.4071133
25	0x3fad7a2b	1.3552908
26	0x3f1608cf	0.5860719
27	0x3f8069bb	1.0032266
28	0xbeb14833	-0.34625396
29	0xbdd547c6	-0.1041408
30	0xbea7e314	-0.32790434
31	0x3f8924ae	1.0714319
32	0xbf775671	-0.96616274
33	0xbf28c948	-0.6593213
34	0xbea4f8eb	-0.3222116
35	0x3fea39db	1.8298906
36	0x3ea13201	0.31483462
37	0xbed698cd	-0.41913453
38	0x3e9a8aea	0.30184108
39	0xbf43c760	-0.764761
40	0xbfc4d70c	-1.5378127
41	0x3f7ba64b	0.9830062
42	0xbf5e5e3c	-0.8686254
43	0xbf17f07f	-0.5935134
44	0xbfa10587	-1.2579812
45	0x4006228c	2.0958586
46	0xbf9c07bb	-1.2189859
47	0xbef6a486	-0.48172396
48	0xbf66f89b	-0.9022309
49	0xbf2658ca	-0.6497923
50	0x3d9dc3a8	0.07703334
51	0x3f04e665	0.51914054
52	0xbef6ae9b	-0.48180088
53	0x3f968f78	1.1762533
54	0xbf4dbe21	-0.8036824
55	0xbf3a064e	-0.7266587
56	0xbfb15616	-1.3854396
57	0x3d119956	0.035546623
58	0xbd805a47	-0.06267219
59	0x3f2ac3cf	0.6670503
60	0xbe1b51a7	-0.15167867
61	0x3ff4ca58	1.912425
62	0xbf914ae8	-1.1350985
63	0x3fbb0355	1.4610392
64	0x3fbf2cd0	1.4935551
65	0x3f845354	1.033793
66	0x4018cbbd	2.3874352
67	0x3f12b522	0.57307637
68	0x3e3c6a87	0.18400012
69	0xbed2dc96	-0.4118392
70	0xbf6fdeb5	-0.936992
71	0x3f9af575	1.2106158
72	0xbe2e1604	-0.17000586
73	0x3f04637f	0.5171432
74	0x3d64fb09	0.05590347
75	0x3ed77e7b	0.42088684
76	0x3f115582	0.567711
77	0xbf223237	-0.6335787
78	0xc00b6ac0	-2.1783905
79	0xbf3dc41a	-0.7412735
80	0x3c2fcdd1	0.010730223
81	0xbeab3c32	-0.33444363
82	0xbfa96e42	-1.3236773
83	0xbf13f462	-0.57794774
84	0x3f073d77	0.5282816
85	0x3f034704	0.51280236
86	0x3f96d754	1.1784463
87	0x3e35469d	0.17702718
88	0x3f1efa40	0.621006
89	0xbe989ee2	-0.29808718
90	0xbf7b9025	-0.9826682
91	0x3f03ba68	0.5145631
92	0xbfe602ea	-1.7969639
93	0xbf66227b	-0.89896363
94	0x3fac4a5d	1.3460194
95	0x3ecd57bc	0.40106
96	0xc01e930f	-2.4777257
97	0x3ef6afd0	0.4818101
98	0x3f464e68	0.7746339
99	0x3ce7b35a	0.028283764
100	0x3f21f3e6	0.63262784
101	0x3f136aaa	0.5758463
102	0x3f86d554	1.0533853
103	0xbee38ded	-0.44444218
104	0xbe3b4f03	-0.1829186
105	0x3f3e4343	0.74321383
106	0x3ecc9b47	0.39962217
107	0x3e346e05	0.17620094
108	0x3e85e9b4	0.26154864
109	0x3fa0e59f	1.2570075
110	0xbaa9a334	-0.0012942315
111	0xbe9978f8	-0.29975104
112	0xbfb82272	-1.4385512
113	0xbdceecba	-0.10103746
114	0xbf176fe8	-0.5915513
115	0x3ef12783	0.47100458
116	0x3f378aaf	0.7169599
117	0x3db84ff0	0.08999622
118	0xbec4acb9	-0.38413027
119	0x3f056e6b	0.5212161
120	0x3dd046cb	0.10169753
121	0x3e8e8b1a	0.278405
122	0x3e65a5b8	0.22426498
123	0x3f419e33	0.7563202
124	0x3f5dde2e	0.86667144
125	0x3f1334f6	0.57502687
126	0x3f45b8f8	0.77235365
127	0x3eace7ad	0.33770505
128	0x3ff0dd88	1.8817606
129	0x3f75ca20	0.96011543
130	0xbfbbf55e	-1.4684255
131	0xbf907484	-1.1285558
132	0xbe098878	-0.13430965
133	0x3fcead44	1.6146626
134	0x3f257c75	0.6464303
135	0x3f1195d4	0.56869245
136	0x3f904237	1.1270207
137	0x3c96267d	0.0183289
138	0xbfe43600	-1.782898
139	0x3f69e7dc	0.91369414
140	0xbebdbcac	-0.37058008
141	0x3f828ea2	1.0199778
142	0xbf2d8dac	-0.677943
143	0x3f20f485	0.6287311
144	0xbf74dcca	-0.956494
145	0x3f727236	0.9470552
146	0x3fd4a4ee	1.6612833
147	0x3fc0b9e2	1.5056727
148	0x3e1f5835	0.15560992
149	0xbd1102d9	-0.035403106
150	0xbf30ce0b	-0.69064397
151	0x3bfe5fbf	0.0077628787
152	0x3e624955	0.22098286
153	0x3f55880f	0.83410734
154	0xbed7763b	-0.4208239
155	0x3fc02983	1.5012668
156	0xc01cb6ce	-2.4486575
157	0xbed311cb	-0.41224512
158	0xbf9713fb	-1.1802973
159	0x3f4d5228	0.80203485
160	0xbff02f3e	-1.8764417
161	0x3e6717db	0.22567694
162	0x3cc910c0	0.02454412
163	0xbeaee126	-0.3415615
164	0x3e90ff0b	0.28319582
165	0xbf38b8dd	-0.7215708
166	0x3e30bf15	0.17260392
167	0xbf8a3eff	-1.0800475
168	0xbfcec9a2	-1.6155283
169	0x3facd307	1.35019
170	0x3fa0a6b5	1.2550875
171	0x3dd32d47	0.1031137
172	0xbfbdffbb	-1.4843668
173	0x3f5a9b10	0.85392857
174	0x3f57c059	0.84277874
175	0x4000af21	2.010689
176	0xbdb47604	-0.08811572
177	0x3d1ea3a7	0.03873029
178	0xbf563fe4	-0.8369124
179	0xbe3b664c	-0.18300742
180	0xbf6b8d53	-0.9201252
181	0xbfc90f99	-1.5707885
182	0xbf8f8fb3	-1.1215729
183	0xbf041657	-0.5159659
184	0xbf031f13	-0.5121929
185	0xbfbdb962	-1.4822199
186	0xbff37bac	-1.9022117
187	0x3e014234	0.1262291
188	0x3f81458e	1.0099351
189	0xbf0c7ab8	-0.54874754
190	0x3f3201cc	0.6953399
191	0x3f336c3f	0.70087045
192	0x3fe4e972	1.7883742
193	0xbf689723	-0.90855616
194	0x3f75e2ea	0.9604937
195	0xbe661dad	-0.22472258
196	0xbf9dbeeb	-1.2323889
197	0x3ee296fd	0.4425582
198	0x3f0d4c13	0.55194205
199	0x3fa6f9bd	1.3044964
200	0x3ef532c1	0.47890285
201	0x4005ccb0	2.0906181
202	0xbf18f195	-0.59743625
203	0xbf67f248	-0.90604067
204	0x3e3b336a	0.18281332
205	0x3f870e76	1.0551288
206	0x3fa51d48	1.2899561
207	0x3ee872dc	0.4540013
208	0xbf4de61e	-0.80429256
209	0xbf810f57	-1.0082806
210	0xbefa2fb9	-0.48864534
211	0xbf15b1c9	-0.58474404
212	0x3e1c03b3	0.15235786
213	0x3edecf44	0.43517506
214	0xbe15ecb8	-0.14641082
215	0xc0127fbb	-2.289046
216	0xbebffd51	-0.37497953
217	0x3f8d5e53	1.104441
218	0xbfde981d	-1.7390171
219	0x3fcefa9c	1.617023
220	0x3e86daee	0.26338905
221	0xbea05efe	-0.31322473
222	0x3f91d0af	1.139181
223	0x3fcad95a	1.584758
224	0xbe187d55	-0.1489156
225	0x3fc81f91	1.5634633
226	0x3dc1e14f	0.09466802
227	0xbf8619d0	-1.0476627
228	0xbf0268a9	-0.5094095
229	0x3d9b364a	0.07578714
230	0x3f02c4b1	0.5108138
231	0x400348e7	2.0513246
232	0xbe5ca11e	-0.21545836
233	0xbf37c54e	-0.7178544
234	0xbff30f78	-1.8989096
235	0xbf91ddf9	-1.1395866
236	0xbd15f610	-0.036611617
237	0x3d087ff2	0.033325143
238	0x3e3ea414	0.18617278
239	0x3eb53d93	0.3539854
240	0xbf6ad700	-0.91734314
241	0x3e8b9d6d	0.27268544
242	0xbf0833dd	-0.5320414
243	0x3ee9d65f	0.45671365
244	0xbf5c5f58	-0.86082983
245	0xbcdb55e7	-0.02677436
246	0xbeb2915b	-0.34876522
247	0x3fb8fee2	1.4452784
248	0x3f9ea88c	1.2395186
249	0xbf34b4ad	-0.7058819
250	0x3f57d49d	0.843088
251	0x3f01a8f4	0.50648427
252	0x3f13e77c	0.5777509
253	0x3f008ea2	0.5021764
254	0x3f132cd0	0.57490253
255	0x3e972c26	0.2952587

weight f4 [2617, 6]
0	0x00000000	0.0
1	0x00000000	0.0
2	0x00000000	0.0
3	0x00000000	0.0
4	0x00000000	0.0
5	0x00000000	0.0
6	0x3ff0ef16	1.8822963
7	0x3f9206f2	1.140837
8	0x3fc3806c	1.5273566
9	0xbf00c4de	-0.50300395
10	0xbf506be2	-0.81414616
11	0xc0045ce0	-2.0681686
12	0x3ea304ee	0.318397
13	0x3e881f3f	0.2658634
14	0xbaba2fce	-0.0014204921
15	0xbefa4004	-0.48876965
16	0xbfa84c4e	-1.3148286
17	0xbf7631e5	-0.96169883
18	0xbe350660	-0.17678213
19	0xbeb36e7e	-0.35045236
20	0x4019ccd1	2.403126
21	0x3efe11e9	0.4962304
22	0x3f00d601	0.50326544
23	0xbdfaef36	-0.12252657
24	0x3e1b613d	0.15173812
25	0x3e28c92c	0.16482991
26	0x4034ba96	2.8238883
27	0xbf85dd65	-1.0458189
28	0x3f3c49c4	0.7355006
29	0x3c99d825	0.018779824
30	0x3e316d91	0.17326953
31	0x3f6fa1d0	0.9360628
32	0xbf38eb11	-0.7223368
33	0x3f5e6118	0.86866903
34	0x3da7da45	0.081959285
35	0x3ecf0fd4	0.40441763
36	0x3cddb0eb	0.0270619
37	0x3f2660ba	0.64991343
38	0x3e257fe1	0.16162063
39	0xbf915aac	-1.1355796
40	0x3faeac8a	1.3646405
41	0x3f6d321e	0.926546
42	0xbee03b43	-0.43795213
43	0xbe0b1112	-0.1358073
44	0x3fb684f2	1.4259322
45	0x3f415344	0.7551768
46	0x3fa5e93c	1.2961802
47	0xbf53f636	-0.82797563
48	0x3f87921e	1.0591466
49	0x3fe2dee3	1.772427
50	0xbfd97dbf	-1.69915
51	0x3e8a430d	0.2700428
52	0xbf7d035b	-0.98833245
53	0x40446be9	3.0690863
54	0xbf38c1ed	-0.7217091
55	0x3d17e540	0.037083864
56	0xbed00531	-0.4062896
57	0xbda9c98a	-0.08290394
58	0xbfc735ec	-1.5563331
59	0x3f19f71e	0.60142696
60	0x3fc3057d	1.523605
61	0x3e888114	0.2666098
62	0x3e8ee464	0.27908623
63	0x3f1d33d6	0.6140722
64	0x4005e683	2.0921943
65	0x3e1fde4e	0.15612146
66	0xbfc8016d	-1.5625435
67	0x3fb18589	1.3868877
68	0xbfce5d5c	-1.6122241
69	0xbf37d619	-0.7181106
70	0x3e868987	0.262768
71	0x3f12019f	0.57033724
72	0x3fa6cd0d	1.3031327
73	0x3f8a5fe0	1.0810509
74	0xbe1da10f	-0.1539347
75	0xbee64695	-0.44975725
76	0x3dce8391	0.10083688
77	0xbfb8eba6	-1.4446914
78	0xbf8191c4	-1.0122609
79	0x3e3c01bd	0.18360038
80	0x3f80755d	1.0035816
81	0x3d140c32	0.036144443
82	0x3ebd67df	0.3699331
83	0xbf550650	-0.8321276
84	0xbc05e89c	-0.008173134
85	0xbf3bc3c4	-0.7334559
86	0xbe949a13	-0.290238
87	0xbe64c7dc	-0.22341865
88	0xc00717d6	-2.1108298
89	0x3fb7863d	1.4337841
90	0x3f807a80	1.0037384
91	0x3f0a137b	0.53935975
92	0x3f1deb4b	0.61687154
93	0xbeed5d36	-0.46360177
94	0x3f3efe97	0.74607223
95	0x3f93040d	1.1485611
96	0xbe066804	-0.13125616
97	0xbf0c37f9	-0.5477291
98	0xbeb6fd98	-0.35740352
99	0x3fb5ad50	1.4193516
100	0x3f3251c5	0.6965602
101	0xbf46e781	-0.77696997
102	0xbfb4b48d	-1.41176
103	0x3e3c1160	0.18366003
104	0x4022359c	2.534522
105	0xbf321911	-0.695695
106	0x3ece5ea7	0.4030659
107	0xbf69dffa	-0.91357386
108	0xbf33decc	-0.70261836
109	0x3df3b839	0.11900372
110	0x3fd6c017	1.6777371
111	0xbf57c0ba	-0.8427845
112	0x3fde337c	1.7359462
113	0xbf18a09c	-0.5962007
114	0x3cbb1b01	0.022840025
115	0x3da3ac68	0.07991868
116	0x404f48e1	3.2388232
117	0x3e1b7d29	0.15184464
118	0x3e4aec31	0.19816662
119	0x3ec188c6	0.37799662
120	0xbef20f24	-0.47277176
121	0xbe1e6f62	-0.15472177
122	0xbf37e9a3	-0.71840876
123	0x3fbcdb47	1.4754418
124	0xbc15e353	-0.009148437
125	0xbef1cc92	-0.47226387
126	0xbef4c89a	-0.47809297
127	0x3f5c03a0	0.8594303
128	0xbfe31af1	-1.7742597
129	0xbf4b023e	-0.79300296
130	0x3f57b078	0.84253645
131	0x3ea2d892	0.31805855
132	0xbf61cf12	-0.8820659
133	0x3ecdad86	0.4017145
134	0xbdda811e	-0.106691584
135	0xbf2e0b60	-0.67986107
136	0x3ee5240f	0.44754073
137	0x3fbaee57	1.4603986
138	0x4000230c	2.002139
139	0x3f6f69ce	0.9352082
140	0x3faf25eb	1.3683447
141	0xbfb4ff04	-1.4140325
142	0xbfc6c802	-1.5529788
143	0xc02e2e36	-2.7215705
144	0x3f81d793	1.0143913
145	0x3facda9c	1.3504214
146	0xbf2bed41	-0.67158896
147	0xbf168016	-0.58789194
148	0xbf5b9a44	-0.85782266
149	0xbfb6a925	-1.4270369
150	0xbfb17387	-1.3863381
151	0x3f0463d4	0.51714826
152	0x3f9c87ab	1.2228903
153	0x3d763701	0.06011105
154	0xbf1de071	-0.61670595
155	0x3faf7c55	1.3709818
156	0xbd153ccb	-0.03643493
157	0xbf3be0f8	-0.7339015
158	0xbead53a9	-0.3385289
159	0x3ecace3c	0.3961047
160	0x3eea326a	0.45741588
161	0xbf472e54	-0.77805066
162	0x3f34eba7	0.70672077
163	0xbb2fb6ee	-0.0026811915
164	0xbe36c7fb	-0.17849724
165	0x3ebc0500	0.36722565
166	0xbf6f56f5	-0.9349206
167	0x3ed89406	0.42300433
168	0x3f88c773	1.0685867
169	0x3b913b8c	0.0044321474
170	0xbf2d830e	-0.677781
171	0x3b76e566	0.0037673353
172	0xbf0aef55	-0.5427144
173	0xbf65922c	-0.89676166
174	0x3f80d332	1.0064452
175	0x3ff3b5c4	1.9039845
176	0xbfab64d3	-1.3390144
177	0xbf947fa9	-1.1601459
178	0xbf1a02dd	-0.6016062
179	0x3ebaf0f5	0.3651196
180	0xbf23a95b	-0.6393029
181	0x3f95b066	1.1694458
182	0xbf598769	-0.84972245
183	0x3dc6ebdf	0.097129576
184	0xbf66ee9a	-0.9020783
185	0xbf5d6024	-0.86474824
186	0xbf0ecca0	-0.5578098
187	0x3e93cd24	0.28867447
188	0x3f62a9bc	0.88540244
189	0x3d4fc209	0.050722156
190	0xbfb81fd8	-1.4384718
191	0x3f065f48	0.5248914
192	0x3f25f9fa	0.6483456
193	0xc014718e	-2.3194308
194	0xbf26000b	-0.64843816
195	0x3ec96267	0.39332888
196	0xbddcedc0	-0.10787535
197	0x3f9241a0	1.1426277
198	0x3e8bfa75	0.2733952
199	0x3e17e795	0.14834435
200	0x3e09ec77	0.1346911
201	0x3db0d59f	0.08634495
202	0xbf14a56f	-0.5806493
203	0x3f98aa50	1.1926975
204	0xbfdafff7	-1.7109364
205	0x3ef15ca3	0.4714099
206	0x3e95daba	0.29268438
207	0x3f2bc66e	0.67099655
208	0xbf540b55	-0.8282979
209	0x406b9278	3.6808147
210	0x3efbb44d	0.49160996
211	0xbe49367c	-0.1964969
212	0xbf931dba	-1.1493447
213	0x3dc0f4de	0.09421705
214	0x3e94d843	0.29071245
215	0xbf50b54a	-0.81526625
216	0xbf63afbc	-0.88940024
217	0xbe0d2c75	-0.1378649
218	0x406b848f	3.6799657
219	0x3e4559fd	0.19272609
220	0xbefd78cf	-0.49506232
221	0x40049f79	2.0722334
222	0x3f8490cd	1.035669
223	0x3ea549ca	0.3228286
224	0x3ee54417	0.4477851
225	0xbc37df8e	-0.011222733
226	0xbee6263b	-0.44951043
227	0xbe8b9c07	-0.27267477
228	0x3f74e89b	0.9566743
229	0xbf52db2c	-0.8236568
230	0xbf916d85	-1.1361548
231	0xbeb43952	-0.35199982
232	0x40053d3b	2.0818622
233	0x3fa8a6a9	1.3175861
234	0xbe16619f	-0.14685677
235	0xbfe476a2	-1.7848704
236	0x3ebf3830	0.37347555
237	0xbeab7466	-0.33487242
238	0xc014f639	-2.3275282
239	0x3e5830e5	0.21112402
240	0xbebeee35	-0.37291113
241	0xbf5c5b77	-0.86077064
242	0x3e5550c5	0.20831592
243	0x3f59d536	0.8509096
244	0x3f1dfccf	0.6171388
245	0x400c9dc5	2.1971295
246	0x3f4ea7d1	0.8072482
247	0xbe60c07f	-0.21948431
248	0x3debaa62	0.11507107
249	0x3fe9fb56	1.8279827
250	0xbfa0c1ed	-1.2559181
251	0xbf5af022	-0.85522664
252	0xbfde02ad	-1.7344567
253	0xbfcca7de	-1.5988729
254	0xbfb29a93	-1.3953422
255	0xbf795247	-0.9739117

weight f4 [2617, 8]
0	0x00000000	0.0
1	0x00000000	0.0
2	0x00000000	0.0
3	0x00000000	0.0
4	0x00000000	0.0
5	0x00000000	0.0
6	0x00000000	0.0
7	0x00000000	0.0
8	0x3cc182f4	0.023622014
9	0xc024f0ee	-2.5772052
10	0x3e097434	0.13423234
11	0x3f012277	0.50443214
12	0x3fa95070	1.3227673
13	0xbfbdbbb7	-1.4822911
14	0xbeb19600	-0.34684753
15	0xbf8d85e5	-1.1056486
16	0xbfbfc0e7	-1.4980744
17	0x3fa7c45d	1.31068
18	0xbf24edb6	-0.6442522
19	0x3c83c8b0	0.016086906
20	0x3fa74032	1.3066466
21	0xc0077ec3	-2.117112
22	0xbc16e6ce	-0.009210302
23	0x3f016f67	0.5056061
24	0x3fa5749d	1.2926213
25	0xbe90f274	-0.28309977
26	0xbfad9df3	-1.3563827
27	0x3f9ed2a7	1.2408036
28	0x3ed7dcd5	0.4216067
29	0xc018b3a9	-2.3859656
30	0x3fa324d1	1.274561
31	0xbf1ce3c0	-0.6128502
32	0xbf5543d2	-0.8330661
33	0x3f089777	0.53356117
34	0x3fe07890	1.7536793
35	0x3e31ff15	0.17382462
36	0xbf694d31	-0.9113341
37	0x3f71d214	0.9446118
38	0x3fa5caf6	1.2952564
39	0xbf09527c	-0.53641486
40	0x3f4077a2	0.75182545
41	0x3f6a16be	0.9144095
42	0x3eaa2cba	0.3323725
43	0x3d7e6ef9	0.06211755
44	0xbe1ebe9a	-0.15502396
45	0xc00dde38	-2.2166882
46	0x3ea366f4	0.31914485
47	0xbf220c6e	-0.63300216
48	0xbfa990bc	-1.3247294
49	0x3e3ebc24	0.18626457
50	0x3f66ea45	0.90201217
51	0x3ef27840	0.47357368
52	0x3e1e1e08	0.15441144
53	0xbf9f6aad	-1.245443
54	0xbf939424	-1.1529584
55	0x3f9080b5	1.1289278
56	0x3e8d5f52	0.27611786
57	0x3f2f8885	0.6856769
58	0x3eccb57f	0.3998222
59	0x3db54ab5	0.0885214
60	0x3de9fde3	0.11425378
61	0x3f7f457c	0.997154
62	0xbd875945	-0.06608824
63	0x3fbace5c	1.4594226
64	0x3ebc9235	0.36830297
65	0xbfe2da55	-1.772288
66	0x3fae6859	1.3625594
67	0xbf90fe3f	-1.132759
68	0x3fa06ee1	1.2533838
69	0x3f74813e	0.9550971
70	0xbed5c70c	-0.41753423
71	0xbd150c50	-0.036388695
72	0xbf078465	-0.52936393
73	0xbf89ebd9	-1.07751
74	0xbf3a0f8f	-0.7267999
75	0x3d4c4be3	0.04987706
76	0x3e2450ec	0.16046494
77	0x3fde9ceb	1.7391638
78	0xbec0230f	-0.37526748
79	0x3eead550	0.4586587
80	0xbdf81bf7	-0.12114709
81	0xbfdb21ba	-1.7119668
82	0xbe351d10	-0.17686868
83	0xbf2037af	-0.62584966
84	0xbee93780	-0.45550156
85	0xbf88bde7	-1.0682954
86	0xbfd97eec	-1.6991858
87	0x3e7b63aa	0.24549738
88	0x3f7c2fae	0.98510253
89	0x3e80fd7a	0.25193387
90	0x3ed920de	0.42407888
91	0x3f261203	0.64871234
92	0x3f67b15f	0.9050502
93	0x3f92e80a	1.1477063
94	0xbc962414	-0.01832775
95	0xbf3849a7	-0.71987385
96	0xbe4ceb42	-0.20011619
97	0xbe88e202	-0.2673493
98	0xbe8ba037	-0.27270672
99	0x3e169cf5	0.14708312
100	0xbf960bb0	-1.1722317
101	0xbf7edec6	-0.99558675
102	0xbed8cc05	-0.42343155
103	0xbed52375	-0.41628614
104	0x3e523652	0.20528534
105	0x3d965dc9	0.07342107
106	0xbdce19b0	-0.10063493
107	0x3f065a63	0.5248167
108	0x3ee75058	0.45178485
109	0x3e37f5d3	0.17964868
110	0x3db2c6c8	0.08729321
111	0x3d0d6bf1	0.03452677
112	0x3e40bb77	0.18821512
113	0xbf958b06	-1.1683052
114	0x4005a12f	2.0879629
115	0xbf81252a	-1.0089467
116	0xbe86ee24	-0.26353562
117	0x3f6cec88	0.9254842
118	0x3ef511fc	0.47865283
119	0x3f193daa	0.59859717
120	0xbe05a2dc	-0.13050407
121	0x3ee46ccc	0.44614255
122	0x3edfef41	0.43737224
123	0x3ecb65eb	0.39726195
124	0xbdcf3ef7	-0.101194315
125	0xbf974d41	-1.1820451
126	0x3e5e8918	0.21731985
127	0x3f2dd686	0.6790546
128	0x3f08ec47	0.5348553
129	0xbfc3a842	-1.5285723
130	0x3f62a70d	0.8853615
131	0x3e3c22b2	0.1837261
132	0x3fdb2667	1.7121094
133	0xbe82da13	-0.25557002
134	0xbea435fb	-0.32072434
135	0x3f42764a	0.75961745
136	0xbf7d807e	-0.9902419
137	0x3f68d577	0.9095072
138	0x3edcbfd4	0.43115103
139	0x3ec7e3af	0.39040896
140	0x3f41386e	0.7547673
141	0x3efbe326	0.49196738
142	0x4007abde	2.119865
143	0x3f62291d	0.88343984
144	0xc0144834	-2.316907
145	0xbecb7175	-0.39734998
146	0xbfae14ba	-1.3600075
147	0x3fe6ae34	1.8021913
148	0xc00ee759	-2.2328703
149	0xbfa88ded	-1.3168312
150	0x3e4171b0	0.18891025
151	0xbf1e2d97	-0.61788315
152	0xbf35d0ad	-0.7102154
153	0xbee96cdc	-0.45590866
154	0xbd37a8e8	-0.044838816
155	0x3f85668d	1.0421921
156	0x3efcaac8	0.49349046
157	0x3ea81038	0.32824874
158	0x3e2802d9	0.16407336
159	0x3dc9044e	0.09815274
160	0xbf43785f	-0.76355547
161	0xbc8d2a05	-0.01723195
162	0xbfdb983d	-1.7155834
163	0x3f19b0aa	0.6003519
164	0xbf7adb91	-0.9799128
165	0x3e8baaed	0.27278844
166	0xbc5ab5ae	-0.01334898
167	0x3ee7fc18	0.4530952
168	0xbe49e2be	-0.19715402
169	0x3f006258	0.5015006
170	0xbf944542	-1.1583636
171	0x3e1bd5dc	0.152183
172	0xbe88ba79	-0.26704767
173	0xbf8d8f42	-1.1059344
174	0x3f872f36	1.0561283
175	0xbd1b2456	-0.03787645
176	0xbfa92de9	-1.3217136
177	0xbfa0ebe8	-1.2571993
178	0x3f91bfdf	1.138668
179	0xbfb26c6f	-1.3939341
180	0x3eeaa94b	0.45832285
181	0x4006b30a	2.1046777
182	0x3f22bddb	0.63570946
183	0x3eb3ee20	0.35142612
184	0xbea17f07	-0.31542227
185	0xbe6827dd	-0.22671457
186	0xbfa1df12	-1.2646201
187	0x3f0a7b7d	0.5409468
188	0xbee03ef0	-0.43798018
189	0xbd3fa451	-0.046787564
190	0xc011385e	-2.2690654
191	0x3e7261a7	0.23670064
192	0xbdca9880	-0.09892368
193	0xbf4a5cfb	-0.79048127
194	0x3d9d9149	0.076937266
195	0x3da75d83	0.08172133
196	0x3e32bba3	0.1745439
197	0x3fdcc276	1.7246845
198	0x3f4ea1a0	0.8071537
199	0x3d8c1ac8	0.068410456
200	0x3f48eb0f	0.7848367
201	0x3c8f0392	0.017457757
202	0x3f5d2f53	0.86400336
203	0xc01742c6	-2.3634505
204	0x3f553f01	0.8329926
205	0x3e9a84d3	0.30179462
206	0xbfa5c881	-1.2951814
207	0xbd0abeba	-0.033873297
208	0x3ff94c36	1.9476383
209	0x3e5a6b6b	0.21330039
210	0xbfad82dd	-1.3555561
211	0x3f4f83a9	0.8106027
212	0x3f1c8865	0.6114562
213	0xbf77d55d	-0.9680994
214	0xbf0d5e52	-0.55222046
215	0x3f3212ce	0.69559944
216	0x3f81fb0c	1.0154738
217	0xbfae8879	-1.3635398
218	0x3ec92d43	0.39292344
219	0x400ab7fa	2.167479
220	0xbf3285d0	-0.6973543
221	0xbf5773e6	-0.8416122
222	0x3f5778cb	0.8416869
223	0xbfe833e8	-1.814084
224	0x3e2399c7	0.1597663
225	0x3f8dfa6b	1.1092046
226	0x3e0a33c5	0.13496311
227	0xbec7c6a2	-0.39018732
228	0xbfb267cc	-1.3937926
229	0xbd4ba6e1	-0.049719695
230	0xbe534177	-0.20630442
231	0x3fdb8463	1.7149776
232	0xbf4baccc	-0.7956054
233	0xbc9dfdf4	-0.019286133
234	0xbe8387c6	-0.25689524
235	0xbd8d78ca	-0.06907804
236	0xbfba358a	-1.4547589
237	0x3f7f8766	0.99815977
238	0xbecf5965	-0.4049789
239	0x3ed1f1a1	0.4100466
240	0xbeeb2d49	-0.45932987
241	0xbe9aae65	-0.30211177
242	0x3f27f5a8	0.65609217
243	0xbcd4acee	-0.025961366
244	0x3e53d4d9	0.20686664
245	0x3f72194b	0.94569844
246	0x3f5f9ce5	0.8734878
247	0xbcb6af1d	-0.022300297
248	0x400e7cb1	2.2263606
249	0x3ff55734	1.9167237
250	0xbe49d7ca	-0.19711223
251	0xbf8c9545	-1.0983053
252	0xbe35a11e	-0.17737243
253	0xbf85c562	-1.0450861
254	0xbf38d72e	-0.7220334
255	0xbeff9da6	-0.49924964

weight f4 [88, 8]
0	0x00000000	0.0
1	0x00000000	0.0
2	0x00000000	0.0
3	0x00000000	0.0
4	0x00000000	0.0
5	0x00000000	0.0
6	0x00000000	0.0
7	0x00000000	0.0
8	0xbdd521a9	-0.10406811
9	0xbfa273d9	-1.2691604
10	0xbed2967b	-0.41130432
11	0xbdd7a80b	-0.105300985
12	0x3d096e3b	0.03355239
13	0x3fd9ea12	1.7024558
14	0x3fa5dcea	1.2958043
15	0x3fc9e4da	1.5772965
16	0xbe598be0	-0.21244764
17	0x3f2ef9b2	0.68349755
18	0x3f9d292f	1.2278193
19	0x3dde75ef	0.10862338
20	0xbeeb56bb	-0.45964608
21	0xbf1e026f	-0.61722463
22	0x3fc39bb1	1.5281888
23	0x3e393655	0.18087132
24	0x3f1a8656	0.6036123
25	0x3e66b1b9	0.22528733
26	0xbcd92e44	-0.026511319
27	0xbfbb9d6f	-1.465742
28	0x3f24db4b	0.64397115
29	0xbfda0236	-1.7031925
30	0x3fdc87a4	1.7228894
31	0x3f139a79	0.5765758
32	0xbfb2bfcd	-1.3964783
33	0xbef86c6f	-0.48520228
34	0xbfdb64f4	-1.7140183
35	0x3fb8c517	1.4435147
36	0x3cd93429	0.02651413
37	0x3f4608ea	0.7735735
38	0xbf3b51ce	-0.731717
39	0x3d26fd60	0.04076898
40	0x3f8c0d97	1.0941647
41	0x3f4d37d5	0.8016332
42	0xc013f00e	-2.3115268
43	0x3dc057bb	0.09391733
44	0xbe334f38	-0.17510688
45	0x3f9d2965	1.2278258
46	0x3f464e9e	0.7746371
47	0x3ff3851e	1.9024999
48	0xbf4f4c44	-0.8097575
49	0xbfbf2812	-1.4934103
50	0xbf89c0b4	-1.0761933
51	0xbf3dcbf9	-0.7413936
52	0x3e31281e	0.1730046
53	0xbe6ce2dc	-0.23133415
54	0xbedb7f0b	-0.42870364
55	0x3fd3f2fb	1.6558527
56	0xbe1babc7	-0.15202247
57	0x3ed9b942	0.42524153
58	0xbeb52315	-0.35378328
59	0x3f95858a	1.1681378
60	0x4005a353	2.0880935
61	0xbfa204b3	-1.2657684
62	0x3f4cf789	0.8006521
63	0x3f3f2956	0.7467245
64	0xbe4b1155	-0.1983083
65	0xbf976efe	-1.1830747
66	0x3ee8e8bf	0.4549007
67	0x3ee15d79	0.44016626
68	0xbec93079	-0.39294794
69	0xbd10ca00	-0.035348892
70	0x3b560bcf	0.0032660847
71	0x3eb08a55	0.3448054
72	0x3db0a97c	0.086260766
73	0x40366d8d	2.8504364
74	0x3eaad350	0.33364344
75	0x3f95071b	1.1642793
76	0xbef352bc	-0.4752406
77	0x3c6188de	0.013765542
78	0x3fd76f4b	1.6830839
79	0x400edc25	2.2321866
80	0x3d851d83	0.064997695
81	0xc00b5794	-2.1772203
82	0xbf948307	-1.1602486
83	0xbf8c9600	-1.0983276
84	0x3f0eddd8	0.55807257
85	0xbea7aa1a	-0.32746965
86	0x3e4540cd	0.19263001
87	0xbf0e0482	-0.5547563
88	0xbfb7871d	-1.4338108
89	0xbf0d4ef3	-0.5519859
90	0x3ff85674	1.9401383
91	0xbf88d185	-1.068894
92	0x3fa54646	1.2912071
93	0x3f1f07ee	0.62121475
94	0x3f298483	0.6621782
95	0x400d4627	2.2074068
96	0xbf62f393	-0.88652915
97	0x3f15645a	0.5835625
98	0x3f2d0325	0.67582923
99	0x3f771e5b	0.96530694
100	0x3d963aea	0.07335456
101	0x3ea8ba28	0.32954526
102	0xbf02e62c	-0.51132464
103	0x3fabb468	1.3414431
104	0x3f5e11cc	0.86745906
105	0x3f09348c	0.53595805
106	0x3e5c96cb	0.21541898
107	0xbf34ab05	-0.70573455
108	0xbd982898	-0.07429618
109	0xc02dcbea	-2.715571
110	0x3f8a545e	1.0806997
111	0xbdfd8c70	-0.12380302
112	0xbff038db	-1.8767351
113	0x3f7965f4	0.97421193
114	0x3f1f2588	0.62166643
115	0x3e1fe4d0	0.15614629
116	0x3eafdc0f	0.3434758
117	0xbf37afff	-0.71752924
118	0x3f690c88	0.91034746
119	0xbeff127c	-0.4981879
120	0x3f3d8960	0.7403774
121	0xbe9d4801	-0.30718997
122	0xbd8d90f6	-0.06912415
123	0x3b6a9606	0.0035794987
124	0xbf55f2ca	-0.8357359
125	0x3f424335	0.758838
126	0xc01531e7	-2.3311708
127	0xbd81b14f	-0.06332647
128	0x3e993329	0.29921845
129	0x3dcf9639	0.101360746
130	0xbf414d63	-0.7550871
131	0xbfbf3aa4	-1.4939771
132	0xbe8069ab	-0.25080618
133	0x3fda05a5	1.7032973
134	0x3efbf51d	0.49210444
135	0x3fbe2396	1.485461
136	0x3f723ba5	0.9462226
137	0xbf41d604	-0.75717187
138	0x3f3bd700	0.7337494
139	0xbf4d02ca	-0.8008238
140	0xbf0fdee1	-0.5619946
141	0xbfca6003	-1.581055
142	0x3fca99a8	1.5828142
143	0x3ee63f61	0.4497023
144	0x3d0f9028	0.035049587
145	0xbf0f5c58	-0.5600028
146	0x3f1fcbe2	0.62420475
147	0x3ebbee9a	0.36705476
148	0xbf6ba293	-0.92044944
149	0xbdf63db7	-0.1202349
150	0xbbeb9e0f	-0.007190473
151	0xbec20d01	-0.37900546
152	0xc0149527	-2.3216035
153	0x3fd0ee4d	1.6322724
154	0xbfc0a05f	-1.5048941
155	0xbf985b7e	-1.1902921
156	0x3f609bc8	0.87737703
157	0x3f08fe12	0.5351268
158	0xbeeab16f	-0.45838496
159	0xbfa030e4	-1.251492
160	0x3f753b3e	0.9579352
161	0x3f04cc26	0.51874006
162	0xbfaa2422	-1.3292277
163	0xc00cc0f9	-2.199278
164	0x3cabe2cf	0.020982174
165	0xbf8ae3b6	-1.0850742
166	0x3e3d4e81	0.18486978
167	0x3fd77cea	1.6834996
168	0x3fd30c52	1.6488135
169	0x400e2c50	2.2214546
170	0xbe9ce276	-0.30641526
171	0x3f348e33	0.7052948
172	0x3fc1142c	1.5084281
173	0x3f790135	0.97267467
174	0xbf064331	-0.52446276
175	0x3ec0b472	0.3763767
176	0xbf912d7d	-1.1342007
177	0xbf55ab8c	-0.83464885
178	0xbf0d5609	-0.55209404
179	0x3f7cbee0	0.9872875
180	0x3fbbf86c	1.4685187
181	0xbf000da9	-0.50020844
182	0xbf18f6f6	-0.5975183
183	0xbfa700c1	-1.3047105
184	0x3ed957b5	0.42449728
185	0xbebb6c07	-0.36605856
186	0xbf553bc7	-0.8329434
187	0x3bf73417	0.0075440514
188	0x3ea10d70	0.31455564
189	0x3fcaee0e	1.5853899
190	0xbf505b7b	-0.8138959
191	0xbf800754	-1.0002236
192	0x3fae8a6c	1.3635993
193	0xbf40a3b7	-0.7524981
194	0x3e8bff1a	0.27343065
195	0xbe7fdd56	-0.24986777
196	0xbf580c6d	-0.8439396
197	0x3f807a82	1.0037386
198	0x3ee50eda	0.44737893
199	0x3f851426	1.0396774
200	0x3df642bc	0.12024447
201	0xbf259c32	-0.6469146
202	0xbf8c7f64	-1.0976377
203	0xbec4488e	-0.38336605
204	0xbfad417f	-1.3535613
205	0xbe67919e	-0.22614142
206	0xc050737e	-3.257049
207	0xbce76218	-0.028245017
208	0xbdf3d7cb	-0.119063936
209	0xbc401b60	-0.011725277
210	0xbf58ca20	-0.8468342
211	0xbf39db9a	-0.7260071
212	0xbd3a83b1	-0.045535747
213	0x3c64fca1	0.013976247
214	0x3e421e1c	0.18956798
215	0xbe216dee	-0.15764591
216	0x3f0577e7	0.5213608
217	0xc02e5701	-2.7240603
218	0x3dbd406c	0.09240803
219	0x3db7fbaa	0.08983548
220	0xbe49acad	-0.19694777
221	0x3feefeb0	1.8671474
222	0x3eecdb11	0.46260884
223	0x3f3b5a00	0.73184204
224	0xbe60f4b8	-0.21968353
225	0x3fbbe6cf	1.4679812
226	0x3d9e3964	0.0772579
227	0x3f3b2c38	0.7311435
228	0xc0125d0a	-2.2869287
229	0x3edee550	0.43534327
230	0xbf5cbe7f	-0.86228174
231	0x3fa03e40	1.2518997
232	0x3f1ac80d	0.60461503
233	0x3e95d741	0.29265788
234	0x3f00e52e	0.503497
235	0x3fc3a81b	1.5285677
236	0xbea3d6db	-0.3199986
237	0x3f771362	0.9651395
238	0xbeb5cac0	-0.35506248
239	0x3e16c9af	0.14725374
240	0x3f5c419f	0.8603763
241	0x3edb7bd7	0.4286792
242	0xbe48244b	-0.19545095
243	0x3f010156	0.50392663
244	0xc022d055	-2.5439656
245	0xbf68650d	-0.9077919
246	0xbf15d781	-0.5853196
247	0x3d80c57d	0.06287668
248	0xbea22d35	-0.31675115
249	0x3e37aa2a	0.17936006
250	0x3fc0e267	1.5069093
251	0xbe80a5be	-0.2512645
252	0x3edad421	0.42739967
253	0x3f450336	0.76958025
254	0xbef2a1f9	-0.473892
255	0xbf7c7a08	-0.98623705

weight f4 [798, 4]
0	0x00000000	0.0
1	0x00000000	0.0
2	0x00000000	0.0
3	0x00000000	0.0
4	0xbcbfb70f	-0.023402719
5	0xbfb5d9b6	-1.4207065
6	0x3f1cc5e1	0.6123944
7	0x3f4de524	0.80427766
8	0x3fdac622	1.7091715
9	0xbf1bc590	-0.6084833
10	0x3e4a5176	0.19757637
11	0x3fc05b7d	1.502792
12	0xbf421ade	-0.75822246
13	0x3ed9801d	0.42480555
14	0xbf57a23e	-0.84231937
15	0xbf783c0d	-0.9696663
16	0xbf889135	-1.0669314
17	0x3f901c50	1.125864
18	0xbf9f145d	-1.2428089
19	0xbf465fdc	-0.7749002
20	0xbf40b2aa	-0.7527262
21	0xbebc4a05	-0.36775222
22	0xbf16381d	-0.5867937
23	0x3f135a70	0.5755987
24	0x3f4e3a9c	0.8055818
25	0x3e5ae754	0.21377307
26	0x3f4ddcef	0.8041524
27	0xc00d5925	-2.208566
28	0x3f57d9bd	0.8431662
29	0x3fb0bd83	1.3807834
30	0x3e989997	0.2980468
31	0xbfc79694	-1.5592828
32	0xbea723a9	-0.32644394
33	0xbf2516fc	-0.64488196
34	0xbe8448f6	-0.25836915
35	0x3f0f1f73	0.5590736
36	0xc02bb364	-2.6828241
37	0x3fabd5c8	1.3424616
38	0xbfb7c73c	-1.4357677
39	0x3f9b9125	1.215367
40	0xbf3c99e0	-0.73672295
41	0x3eff028a	0.49806625
42	0xbf56c81b	-0.83899087
43	0xbea04c0a	-0.31308013
44	0x3dbc515b	0.09195205
45	0x3e9107c5	0.2832624
46	0x3f36cc12	0.71405137
47	0x3ef81634	0.4845444
48	0xbf73c69d	-0.95224935
49	0xc002316e	-2.034267
50	0xbff90a8c	-1.9456344
51	0xbead5514	-0.33853972
52	0xbfbe511d	-1.4868504
53	0xbe5206b1	-0.20510365
54	0xbeac8bc0	-0.3370037
55	0x3fe3edc9	1.7806941
56	0x3eb92311	0.36159566
57	0xbffb6fc6	-1.9643486
58	0x3f90906b	1.1294073
59	0xbfdf4c21	-1.7445108
60	0xbf83c537	-1.029456
61	0xbe840dd7	-0.2579181
62	0xc00303cb	-2.0471065
63	0x3f0460cd	0.51710206
64	0xbfb56e2b	-1.4174246
65	0xbda4f5fd	-0.08054731
66	0xbe9ed054	-0.31018317
67	0x3e72bb3f	0.23704241
68	0x3f038269	0.51370865
69	0xbf74bf71	-0.95604616
70	0xbf9383b3	-1.1524566
71	0x3f9d25a7	1.2277116
72	0xbf0b41bf	-0.54397196
73	0x3f4decf2	0.80439675
74	0x3f770f48	0.9650769
75	0xbe8c8835	-0.27447668
76	0xbd80f586	-0.0629683
77	0xbfd07b5b	-1.6287645
78	0x3edbd715	0.42937532
79	0xbe422218	-0.18958318
80	0xbd8fa668	-0.07014161
81	0xbfe86bf7	-1.8157948
82	0xbff46f53	-1.9096473
83	0x3f01ffd8	0.5078101
84	0xbd17a0fb	-0.037018757
85	0x3e8e0cd2	0.27744156
86	0xbe4745a6	-0.19460163
87	0x3faacc1c	1.3343539
88	0xbf68a580	-0.9087753
89	0xbf0252cd	-0.50907594
90	0xbe8aadb5	-0.27085653
91	0xbed6a7af	-0.41924807
92	0x3f522718	0.820909
93	0xbeb8f150	-0.36121607
94	0x3fc441af	1.5332545
95	0xbebf4026	-0.3735363
96	0xbf05ad70	-0.5221777
97	0xbed350a7	-0.4127247
98	0xbe71620b	-0.23572557
99	0xbf634016	-0.8876966
100	0x3e345237	0.17609487
101	0xbe9d26a2	-0.30693537
102	0x3d85cccd	0.06533203
103	0xbf871780	-1.0554047
104	0x3f31c58c	0.6944206
105	0xbf55c78e	-0.8350762
106	0xbefc5c91	-0.49289373
107	0x3f5d0ed0	0.8635073
108	0x3f87af22	1.0600321
109	0x3ef506b5	0.4785668
110	0xbf0dabf2	-0.5534049
111	0xbf45fc20	-0.7733784
112	0x3dfbf13c	0.12301871
113	0xbe90fdb9	-0.28318575
114	0x4006d5ec	2.1068068
115	0x3f91de50	1.1395969
116	0xbf520429	-0.820376
117	0xbe966d96	-0.29380482
118	0x3f978b2c	1.1839347
119	0xbf3ea2de	-0.74467266
120	0xbf87266a	-1.0558598
121	0xbf8ae582	-1.085129
122	0xbf06bcb7	-0.52631706
123	0xbf8066e3	-1.0031399
124	0xc03213f4	-2.7824678
125	0x3df1a5c2	0.11799194
126	0xbed342a3	-0.41261777
127	0xbd9f7e1d	-0.07787726
128	0x3f59c554	0.85066724
129	0x3fe4280f	1.7824725
130	0xbfea74a9	-1.8316852
131	0xc002eec4	-2.045823
132	0xbe505746	-0.20345792
133	0x3f5ba5b1	0.857997
134	0xbf8bf6a5	-1.0934645
135	0x3dd1e30d	0.102483846
136	0xbe353b2b	-0.17698352
137	0x3f1c3ee8	0.6103349
138	0xbee7065b	-0.45122036
139	0xc02cd037	-2.7002084
140	0xc0076cab	-2.1160076
141	0xbe53a67c	-0.20668977
142	0x4016734a	2.3507867
143	0xbed28c53	-0.41122684
144	0x3f63f2ca	0.8904234
145	0x3e445bc5	0.19175632
146	0xbf1a4097	-0.60254806
147	0xbda12a63	-0.07869413
148	0x3f742e79	0.9538341
149	0xbfeba60c	-1.8410048
150	0xbfa9c990	-1.3264637
151	0xbe8bce2c	-0.27305734
152	0x4004a7e6	2.0727477
153	0xbf8c93b1	-1.0982572
154	0xbeaa4fe4	-0.33264077
155	0xbf9a1e0d	-1.2040421
156	0xbea38eb7	-0.3194482
157	0x40301713	2.7514083
158	0xbffd6378	-1.979598
159	0xbda03f82	-0.07824613
160	0x3fb03256	1.3765361
161	0xbf85bc0b	-1.0448011
162	0x3fc4752f	1.5348262
163	0x3f116cb7	0.5680651
164	0xbf647968	-0.8924775
165	0xbf65fe60	-0.8984127
166	0xbe1b37a8	-0.1515795
167	0xbf384df7	-0.71993965
168	0xbf947776	-1.1598957
169	0x3d5ec6e4	0.054388896
170	0x3eea0d35	0.457132
171	0xc02cbc14	-2.6989794
172	0xbf5f6495	-0.8726285
173	0x3d2d3170	0.042283475
174	0xbf35a7c8	-0.7095914
175	0x3fbb9ea6	1.4657791
176	0xbfaef191	-1.366747
177	0xbe3dc2b8	-0.1853131
178	0xbea5e91d	-0.32404414
179	0x3e9bd741	0.30437663
180	0x3e6eb1f5	0.23310073
181	0x3f0db5a4	0.55355287
182	0x3fd32d12	1.6498129
183	0x3fbb49db	1.4631914
184	0x4027ca08	2.621706
185	0xbe56530a	-0.20930114
186	0xbf7203bc	-0.9453695
187	0xbf8a191f	-1.0788916
188	0x3bed7690	0.0072467998
189	0xc00aeb55	-2.1706135
190	0x3e68aa9c	0.22721332
191	0x3f8915cb	1.0709776
192	0x3f4ed6e6	0.8079666
193	0x3fe454d5	1.7838389
194	0x3fa8b5ea	1.3180516
195	0x3eebe69e	0.46074384
196	0x3fba6fbc	1.4565349
197	0xc004648c	-2.068637
198	0x3ecc987e	0.39960092
199	0xbf6466cd	-0.8921936
200	0xbe5340f0	-0.2063024
201	0xbe7d992e	-0.24765465
202	0xbfb1566d	-1.38545
203	0x3c2bee52	0.010493832
204	0xbf5c49f7	-0.8605036
205	0x3e5ad58f	0.21370529
206	0xbe5cf897	-0.21579204
207	0x3f23e004	0.64013696
208	0x3b6e8a93	0.0036398515
209	0xbfce80c7	-1.613305
210	0xbf382e9d	-0.71946126
211	0x3eeed18b	0.46644244
212	0x3ef58595	0.47953478
213	0xbb286e17	-0.0025700384
214	0x3f211a98	0.62931204
215	0xbf097503	-0.5369417
216	0x3f56b4a2	0.83869374
217	0x3f1e23b5	0.61773235
218	0x3f7b6e60	0.98215294
219	0xbcde4fc0	-0.027137637
220	0x3f61213b	0.8794133
221	0xbfab16e0	-1.3366356
222	0x3f39fd2f	0.7265195
223	0x3ecaa06a	0.3957551
224	0x3f2be2cf	0.6714296
225	0x3f9a10b1	1.2036344
226	0x3e091d4f	0.13390087
227	0x3d9cb61d	0.07651923
228	0x3f5e3b55	0.86809283
229	0xbe2952ca	-0.16535488
230	0x3e447e08	0.19188702
231	0x3f2bab9f	0.6705875
232	0xbe8c3c41	-0.2738972
233	0x3e1561f4	0.14588147
234	0x3e485af5	0.19565947
235	0x3fd24347	1.6426781
236	0xbf2b1aee	-0.66837966
237	0x3fea5c6e	1.8309457
238	0xbfa803d2	-1.3126166
239	0xbecd1d18	-0.4006126
240	0xc003c034	-2.0586061
241	0xbf5a0a8d	-0.8517235
242	0xbfb11f80	-1.3837738
243	0x3e25d1bb	0.16193287
244	0xbf2ba230	-0.67044353
245	0xbfb4011f	-1.4062842
246	0xbe63aed9	-0.22234668
247	0xbea0b913	-0.313912
248	0x3e69623c	0.2279138
249	0x3f6fdd68	0.93697214
250	0x3f6354db	0.88801354
251	0xbffe9f23	-1.9892315
252	0xbe720092	-0.2363303
253	0xbfa57239	-1.2925483
254	0xbe4303a0	-0.19044352
255	0x3f0daf67	0.5534577

weight f4 [26, 26]
0	0xbe1e7d7e	-0.15477559
1	0x3d61c267	0.055117037
2	0xbc198fc9	-0.00937266
3	0xb8635c30	-5.4206874e-05
4	0xbe0177eb	-0.12643401
5	0xbd8a61e0	-0.067569494
6	0xbe19aaab	-0.15006511
7	0xbe472587	-0.1944791
8	0xbdce62c6	-0.10077433
9	0xbd882e5b	-0.066494666
10	0x3e83dc77	0.2575414
11	0xbe2fd723	-0.17171912
12	0x3e83801a	0.2568367
13	0x3e18ec94	0.14933997
14	0xbe959d23	-0.29221448
15	0xbe7cef83	-0.24700741
16	0xbe722882	-0.23648265
17	0xbea801fc	-0.32814014
18	0x3dc00981	0.09376813
19	0x3dfc0ac8	0.12306744
20	0xbe16b225	-0.14716394
21	0xbe142464	-0.14467007
22	0x3e67916b	0.22614066
23	0xbe17589d	-0.14779897
24	0xbd419a5e	-0.047266357
25	0x3dbc3f9b	0.09191819
26	0xbd4e9963	-0.05043925
27	0xbd1a0af8	-0.037608117
28	0xbb6226ff	-0.0034508107
29	0xbde5fdc3	-0.11230042
30	0xbe51b1cd	-0.20477982
31	0x3d24630f	0.040133532
32	0xbdb50d67	-0.08840447
33	0x3c47c2e4	0.012192462
34	0x3de6a643	0.11262181
35	0xbddabfec	-0.106811374
36	0x3e08a0cb	0.13342588
37	0xbe4aaeb6	-0.1979321
38	0xb8b70b23	-8.7281944e-05
39	0xbe0ed627	-0.1394888
40	0xbecd6bbc	-0.40121257
41	0x3cee3172	0.029076312
42	0xbd9839ca	-0.074328974
43	0xbd9e7141	-0.07736445
44	0x3ebc7b0d	0.3681263
45	0x3d894091	0.06701768
46	0xbdf4ff48	-0.119627535
47	0x3e080a8d	0.13285275
48	0xbc943464	-0.018091388
49	0xbec6077e	-0.3867759
50	0xbd18aa65	-0.037271876
51	0x3bf63bbe	0.007514446
52	0x3c3f36b5	0.011670758
53	0x3e85e0f9	0.26148203
54	0xbd143362	-0.036181815
55	0xba90dd68	-0.0011052312
56	0x3c93bab2	0.01803336
57	0x3e1a0e76	0.15044579
58	0xbe3c55da	-0.18392125
59	0x3d17a62e	0.037023716
60	0x3db4762e	0.088116035
61	0x3e0192a4	0.12653595
62	0x3e08b252	0.13349274
63	0x3dea78ff	0.114488594
64	0x3e4a139e	0.19734046
65	0x3e2057e7	0.15658532
66	0xbea2a00f	-0.3176274
67	0xbe289c8b	-0.16465966
68	0xbe6f4e6c	-0.2336976
69	0xbe61eb2b	-0.22062366
70	0xbdebf9ad	-0.11522231
71	0x3d6a3462	0.057178862
72	0x3d8918fd	0.06694219
73	0xbd800128	-0.062502205
74	0xbe2c2e7b	-0.16814606
75	0x3eeb3a41	0.45942882
76	0x3e582b46	0.21110258
77	0xbc552e8a	-0.013011584
78	0xbe4563ee	-0.19276401
79	0x3d805aba	0.06267305
80	0xbe0ad271	-0.1355684
81	0xbc7e0a58	-0.015505396
82	0xbd992f92	-0.074797764
83	0x3e50a77c	0.2037639
84	0xbdc0648b	-0.09394177
85	0xbd4d614e	-0.050141625
86	0xbe05d053	-0.1306775
87	0x3d9ff459	0.078102775
88	0xbc5f23a0	-0.0136193335
89	0xbc2318dc	-0.009954657
90	0x3da2e4c0	0.07953787
91	0xbdd3fefe	-0.1035137
92	0xbe6a0fad	-0.22857542
93	0x3e255600	0.16146088
94	0xbd27dd79	-0.040982697
95	0x3e65001f	0.22363327
96	0xbe013d7a	-0.12621108
97	0xbe35e71c	-0.17763942
98	0xbe06815d	-0.13135286
99	0x3cac444e	0.021028664
100	0x3e566dd4	0.20940334
101	0x3ca9a5f9	0.020709025
102	0xbe321488	-0.17390645
103	0x3e088ac2	0.13334182
104	0xbe4f9e8c	-0.20275325
105	0xbd7dd38b	-0.06196932
106	0xbe434c07	-0.19071971
107	0xbe4fb75c	-0.2028479
108	0x3e074671	0.13210465
109	0x3e1d083e	0.15335175
110	0xbd4bb670	-0.049734533
111	0x3e11e626	0.14247951
112	0x3d988c83	0.074486755
113	0x3e2d0624	0.16896874
114	0xbe038b17	-0.12846027
115	0xbe1ebb87	-0.15501224
116	0xbb034491	-0.0020029882
117	0x3e80a12c	0.25122964
118	0x3e022314	0.12708694
119	0xbe27aef9	-0.1637534
120	0xbde70c43	-0.112816356
121	0xbb02a22d	-0.001993309
122	0x3c678129	0.014129915
123	0x3d95c8ff	0.073137276
124	0x3c8ec44b	0.017427584
125	0x3d89864d	0.06715069
126	0x3dca0327	0.098638825
127	0x3e0dcfc2	0.13848785
128	0x3d9ee1fd	0.077579476
129	0xbe4a8577	-0.19777475
130	0xbd38cdd2	-0.04511816
131	0xbb121684	-0.0022291252
132	0xbd2e20c0	-0.0425117
133	0x3e0ba748	0.13638031
134	0x3e47eedd	0.19524713
135	0x3e1b4b19	0.15165366
136	0x3d1bc00d	0.03802495
137	0xbdde8ac8	-0.10866314
138	0xbc5043b2	-0.012711452
139	0xbd958d05	-0.07302288
140	0x3da6d3b3	0.08145847
141	0x3e06fcbb	0.13182347
142	0xbdaa29c1	-0.08308745
143	0xbd917bf5	-0.07103721
144	0xbea79cbd	-0.3273677
145	0x3d5b239f	0.053500768
146	0xbe8649e5	-0.26228252
147	0x3e6ac9a0	0.22928476
148	0x3e99b5b6	0.30021447
149	0xbdde4c46	-0.10854392
150	0x3b455969	0.0030113107
151	0xbe285d42	-0.16441825
152	0x3e665982	0.22495082
153	0xbe3831bd	-0.17987724
154	0xbdb8f5cf	-0.09031259
155	0x3ca20dec	0.01978203
156	0xbe10308c	-0.14081019
157	0x3e863b63	0.26217183
158	0xbc82afd6	-0.015952986
159	0x3dcfd473	0.10147943
160	0x3d87e88c	0.06636152
161	0x3dac101e	0.084015116
162	0x3e4b2ea1	0.19842006
163	0xbe02f4f5	-0.12788756
164	0x3e3beb78	0.18351543
165	0xbe4920ec	-0.19641465
166	0xbe12fb13	-0.1435359
167	0x3d4bac02	0.049724586
168	0x3d7e8619	0.062139604
169	0xbd413e0e	-0.04717832
170	0xbec9f3ea	-0.39443904
171	0x3e0695f8	0.13143146
172	0xbe7dc94a	-0.24783817
173	0x3dfbb3a1	0.12290121
174	0x3e06c5f4	0.1316145
175	0xbd9a8183	-0.07544234
176	0xbdf952a8	-0.121739686
177	0x3da4aea9	0.08041126
178	0x3de6b91c	0.112657756
179	0xbe3a1d0f	-0.18175147
180	0x3b018eda	0.0019768984
181	0x3e25de14	0.16197997
182	0xbb672508	-0.0035269875
183	0x3ec4b52e	0.3841948
184	0x3c09c4da	0.0084087495
185	0x3dde460b	0.108532034
186	0x3e9c96bb	0.30583748
187	0xbdd3de7e	-0.103451714
188	0x3be7d146	0.007074508
189	0x3dd22462	0.10260846
190	0x3e65e478	0.22450435
191	0xbd420e82	-0.047377117
192	0xbc234cba	-0.0099670235
193	0x3e6946bd	0.22780891
194	0x3d575573	0.052571725
195	0x3e9ada24	0.30244553
196	0x3f3218df	0.695692
197	0xbe7a6e30	-0.24456096
198	0x3db40670	0.0879029
199	0xbe4a0855	-0.19729741
200	0xbe5c0134	-0.21484834
201	0xbe8fc141	-0.2807713
202	0x3e1bc375	0.1521128
203	0x3d03be9c	0.0321642
204	0x3d7c1716	0.061545454
205	0x3e9595a6	0.29215735
206	0xbe0c54f2	-0.13704279
207	0xbb1d55a0	-0.0024007335
208	0xbcdb2a44	-0.026753552
209	0x3d52bae9	0.051447783
210	0x3d7d2aab	0.06180827
211	0xbd982a3a	-0.07429929
212	0xbd0b6b18	-0.03403768
213	0x3e57dea0	0.21081018
214	0x3e368bc8	0.1782676
215	0x3c0ea9f4	0.008707512
216	0xbf111511	-0.5667277
217	0xbea30162	-0.31836993
218	0x3dcbc82c	0.09950289
219	0x3d560c62	0.052257903
220	0x3e07ee51	0.13274504
221	0x3d5ed0fc	0.05439852
222	0x3e0869bb	0.13321583
223	0xbdcd4465	-0.10022811
224	0xbd53c4d0	-0.051701367
225	0xbe1d6c46	-0.15373334
226	0xbe975515	-0.295571
227	0x3e4295cb	0.19002454
228	0x3e328f52	0.17437485
229	0x3bf5bd2e	0.0074993586
230	0xbc216547	-0.009850807
231	0x3e5fa3c0	0.2183981
232	0x3e1fec95	0.15617593
233	0xbe67752a	-0.22603288
234	0x3de12a30	0.10994375
235	0xbe245c1d	-0.16050763
236	0xbd7102f2	-0.0588407
237	0xbc4103be	-0.011780677
238	0xbdb5719d	-0.08859561
239	0x3cdd9924	0.027050562
240	0x3d9dd4ff	0.077066414
241	0xbaf559c7	-0.0018718772
242	0x3da55956	0.0807368
243	0xbe24572f	-0.16048883
244	0xbe2ff011	-0.17181422
245	0x3d4d724d	0.050157834
246	0xbe167a31	-0.1469505
247	0xbe648f07	-0.22320186
248	0x3dde6d76	0.10860722
249	0x3d1fb406	0.038990043
250	0x3dde26e6	0.10847263
251	0xbe5e8a44	-0.21732432
252	0xbcd0f7d7	-0.025508804
253	0xb9aeb0ec	-0.00033319683
254	0x3e061cd4	0.13096935
255	0xbe642fc2	-0.22283843

weight f4 [1, 26]
0	0x3dbbfd41	0.09179164
1	0x3d8f9736	0.07011263
2	0xbe96de96	-0.29466695
3	0x3d0025d7	0.031286087
4	0x3e3bf792	0.1835616
5	0x3e5143b8	0.20435989
6	0x3e63bbf6	0.2223967
7	0xbe883ad6	-0.26607388
8	0x3e5e0c05	0.21684273
9	0xbdb141fa	-0.08655162
10	0xbdaa5b3f	-0.08318185
11	0x3dacf239	0.08444638
12	0x3e690486	0.22755632
13	0x3b4cc498	0.0031245109
14	0xbe2499c1	-0.16074277
15	0xbe7bd168	-0.24591601
16	0xbe09d4cc	-0.13460082
17	0xbe71a1f8	-0.23596942
18	0xbe11e3be	-0.14247033
19	0x3e5f9779	0.21835126
20	0x3dad11f2	0.084506884
21	0x3e00c21d	0.12574048
22	0xbe72b464	-0.23701626
23	0xbe60bd16	-0.2194713
24	0xbda00f97	-0.078154735
25	0xbe8dfeb8	-0.27733397

weight f4 [10, 46]
0	0xbec46942	-0.38361555
1	0xbd71b59c	-0.059011087
2	0xbe419a4d	-0.18906517
3	0x3e3d50aa	0.18487802
4	0x3dba0cf4	0.09084502
5	0x3d0c9776	0.034324132
6	0x3eb38298	0.35060573
7	0x3e1dbdcb	0.15404432
8	0xbe8818e8	-0.26581502
9	0x3e3ce666	0.18447265
10	0xbe079045	-0.13238628
11	0xbd337bbf	-0.043819185
12	0x3dc16120	0.09442353
13	0x3ef2500d	0.473267
14	0x3e8f4072	0.27978855
15	0x3da62856	0.08113162
16	0xbe4cfd15	-0.20018418
17	0x3ea85659	0.32878378
18	0xbd886730	-0.066603065
19	0x3cd435eb	0.025904616
20	0x3d7e423f	0.062074896
21	0x3dae4dab	0.08510908
22	0xbd5bad1f	-0.053631898
23	0x3d9cbe5e	0.07653497
24	0x3a830d2e	0.0009998435
25	0xbd2e0bf9	-0.042491887
26	0xbc2e8dbe	-0.010653911
27	0x3e42767d	0.18990512
28	0xbbc7502d	-0.0060825557
29	0xbe0c0470	-0.13673568
30	0xbd7c2b45	-0.061564703
31	0xbd96e87f	-0.07368564
32	0x3d50a110	0.05093485
33	0x3d9b2faa	0.075774506
34	0x3dc58774	0.09644976
35	0xbe1f7a2e	-0.15573952
36	0xbd251da8	-0.040311486
37	0x3e18725e	0.14887378
38	0xbdb8722f	-0.09006154
39	0xbdb00932	-0.08595504
40	0xbe33717c	-0.1752376
41	0xbdc38480	-0.09546757
42	0xbd8c6da4	-0.0685685
43	0x3e473f91	0.19457842
44	0xbdea6e6f	-0.11446845
45	0xbe014c21	-0.12626697
46	0xbd9f1e8c	-0.07769498
47	0x3dae4a83	0.08510306
48	0x3d1083fa	0.035282113
49	0x3dcfe13c	0.10150382
50	0xbe032c0f	-0.12809776
51	0x3e6a78a7	0.22897588
52	0xbc776a38	-0.015101008
53	0xbe4c3b43	-0.19944482
54	0xbe5ab6a7	-0.21358739
55	0xbda15d45	-0.07879118
56	0x3dab0b01	0.08351708
57	0xbdbd43fe	-0.09241484
58	0x3e8b18c6	0.27167338
59	0x3e6085a0	0.21925974
60	0xbe136ea5	-0.14397676
61	0xbe3556f8	-0.17708957
62	0xbf066086	-0.52491033
63	0xbe8a9be1	-0.2707205
64	0xbdea71b0	-0.114474654
65	0x3dec0a99	0.11525459
66	0x3d431b86	0.04763367
67	0x3def1682	0.11674215
68	0xbd4baddb	-0.04972635
69	0xbc26484d	-0.010149074
70	0x3cbc12be	0.022958156
71	0xbe12f0af	-0.14349626
72	0x3dc9ccd6	0.098535225
73	0x3d3f7e6b	0.04675142
74	0xbdfb567b	-0.12272354
75	0x3b18d209	0.002331855
76	0x3d459de1	0.04824627
77	0xbdf66dab	-0.12032636
78	0xbe07735b	-0.13227598
79	0xbb403240	-0.0029326826
80	0xbbd5ea75	-0.0065281936
81	0x3e386628	0.1800772
82	0x3d6b3e84	0.057432666
83	0xbe4af7eb	-0.19821136
84	0x3e84e638	0.25956893
85	0xbdd9483f	-0.10609483
86	0x3e3fd27c	0.18732637
87	0x3dedb096	0.11605947
88	0x3eabedec	0.33579957
89	0xbe69f2e9	-0.22846569
90	0x3e4e647a	0.20155516
91	0x3e779e9f	0.24181603
92	0xbe677301	-0.22602464
93	0x3dbb4ece	0.0914589
94	0xbd6eb264	-0.058275595
95	0xbdbac6ce	-0.0911995
96	0x3d9c1e22	0.07622935
97	0x3dbbe52b	0.0917457
98	0x3e9596ef	0.29216716
99	0x3e43b180	0.1911068
100	0xbd418127	-0.04724231
101	0x3db39397	0.08768385
102	0xbe07fbf5	-0.13279708
103	0x3e10a47d	0.14125247
104	0xbe6a3fa2	-0.22875836
105	0xbceec6fb	-0.029147616
106	0x3f093bc3	0.53606814
107	0x3e6592a1	0.22419216
108	0x3da55c2a	0.080742195
109	0x3eb5f781	0.35540393
110	0x3d2fb90a	0.042901076
111	0x3d9ce2f5	0.07660476
112	0x3caaf40a	0.02086832
113	0x3cfa415d	0.030548746
114	0xbc928016	-0.017883342
115	0x3dc333a1	0.09531332
116	0x3c8fd77a	0.017558802
117	0xbe0c7b84	-0.13718992
118	0xbe0e4482	-0.13893321
119	0xbd516731	-0.0511238
120	0x3c652e00	0.013988018
121	0xbba4f3ec	-0.0050339606
122	0xbe0248af	-0.12723039
123	0x3d628086	0.05529835
124	0xbd736ba7	-0.059428837
125	0xbc87e3b0	-0.016588062
126	0x3dbbcd1f	0.09169983
127	0xbe05e381	-0.13075067
128	0x3d7684a5	0.060185093
129	0x3d4e197e	0.05031728
130	0xbd7fba93	-0.06243379
131	0xbe03f1dd	-0.12885232
132	0x3a223f9c	0.0006189288
133	0xbdb87bcb	-0.09007987
134	0xbdc7ba03	-0.09752276
135	0x3d1d1e36	0.03835889
136	0xbe102b25	-0.14078958
137	0x3ce24a4d	0.02762332
138	0x3db0a494	0.08625141
139	0xbdb0dde6	-0.08636074
140	0x3e4fec14	0.203049
141	0x3b8b8ff5	0.0042591044
142	0x3d1bcf22	0.038039334
143	0xbdf808be	-0.121110424
144	0x3d393423	0.045215737
145	0xbe680233	-0.22657089
146	0xbd502bc6	-0.050822996
147	0xbcd3d9b2	-0.025860641
148	0x3dd8a573	0.10578432
149	0xbd001fe7	-0.031280424
150	0x3cf29398	0.029611394
151	0x3e0bf7b9	0.13668717
152	0x3db7f938	0.089830816
153	0xbd9baf88	-0.07601839
154	0xbe46ad64	-0.19402081
155	0xbe6412d8	-0.22272813
156	0x3da474dc	0.08030102
157	0x3d9f1e03	0.07769396
158	0x3d20cc50	0.039257348
159	0xbd8d31e7	-0.06894284
160	0xbd7d1e3f	-0.061796423
161	0x3bb18c63	0.0054183467
162	0x3da754ad	0.081704475
163	0x3dff3649	0.12461526
164	0x3d9b8752	0.0759417
165	0xbd992b0c	-0.07478914
166	0x3d094c69	0.033520136
167	0x3dd4117a	0.10354896
168	0x3be9c628	0.007134218
169	0xbdf90a76	-0.121601984
170	0x3d94d31d	0.07266829
171	0x3d22def8	0.03976342
172	0xbc941740	-0.018077493
173	0xbd10091c	-0.035164937
174	0x3c23c326	0.0099952575
175	0xbe5d8068	-0.21631014
176	0x3d1a9a3b	0.037744742
177	0xbd5c2c06	-0.05375292
178	0x3e5b0ae6	0.21390876
179	0xbdc23f21	-0.09484697
180	0x3e17e446	0.14833173
181	0xbcfe9e7e	-0.031081434
182	0x3e4148d6	0.18875441
183	0xbd9a9a59	-0.07548971
184	0x3ca3c00b	0.019989034
185	0x3df4f01b	0.11959859
186	0xbe345690	-0.17611146
187	0xbea8761e	-0.32902616
188	0x3c327e8b	0.010894428
189	0xbd74eafc	-0.05979441
190	0xbea8dffe	-0.32983392
191	0x3dd912d3	0.105992936
192	0x3d8a058d	0.0673934
193	0x3e1acc17	0.15116917
194	0x3e03913b	0.1284837
195	0x3dccfd4d	0.10009251
196	0xbd1d8a5a	-0.03846202
197	0xbce5a9ab	-0.028035006
198	0xbd4d0992	-0.050057955
199	0xbe80c78b	-0.2515224
200	0xbc8e91bf	-0.017403482
201	0xbeeecaed	-0.46639195
202	0xbdb15cea	-0.086603
203	0x3d4d3542	0.05009962
204	0x3d408706	0.04700377
205	0x3dc077fc	0.09397885
206	0xbe2cc50c	-0.16872042
207	0x3e08a6b0	0.13344836
208	0x3e4879d1	0.1957772
209	0xbd9a7fc9	-0.07543904
210	0xbd034a9e	-0.032053582
211	0xbd82f873	-0.06395044
212	0x3dfd969e	0.123822436
213	0x3d19e93a	0.037575938
214	0x3d8bc6fb	0.06825062
215	0x3cd94ab1	0.026524873
216	0x3e0d56a0	0.13802576
217	0xbcd94077	-0.026519997
218	0xbb142a38	-0.0022608172
219	0xbc81c977	-0.015843136
220	0x3df69957	0.12040966
221	0xbd72b2c5	-0.05925252
222	0x3e3db3f5	0.1852568
223	0x3e14c836	0.145295
224	0xbce3d0bf	-0.027809499
225	0x3e0034e3	0.12520175
226	0x3dabe73d	0.083937146
227	0xbc212d19	-0.009837412
228	0x3dea58ec	0.11442742
229	0xbd6348b9	-0.055489276
230	0x3c12b2b2	0.008953737
231	0xbd85d396	-0.065344974
232	0x3d946c96	0.072472736
233	0x3dbb593f	0.09147882
234	0xbdfaabdf	-0.12239813
235	0x3e3a5036	0.1819466
236	0x3dd1bf06	0.10241513
237	0xbe51f492	-0.20503452
238	0xbe6cc04f	-0.23120235
239	0xbc14265c	-0.009042349
240	0xbe083ce3	-0.13304476
241	0xbc87fed6	-0.016601007
242	0x3e1601e0	0.14649153
243	0x3e74a9ec	0.23892945
244	0xbe7f5f17	-0.24938618
245	0xbda57515	-0.08078972
246	0xbe8fbee1	-0.28075317
247	0xbdd70197	-0.1049835
248	0xbd4b4fe7	-0.049636748
249	0xbc98815d	-0.018616373
250	0xbcf23a58	-0.029568836
251	0xbd4a0206	-0.049318336
252	0xbdce5fb3	-0.10076847
253	0xbcf1ed44	-0.029532082
254	0xbd6d607a	-0.057953335
255	0x3b7383e6	0.0037157475

bias f4 [10]
0	0x3e2b512c	0.16730183
1	0x3d9e3801	0.07725526
2	0x3e3e49ee	0.1858289
3	0xbdf2d3ea	-0.11856826
4	0xbd112d9f	-0.0354439
5	0x3e04d933	0.1297348
6	0x3d8607ec	0.0654448
7	0xbe1e97c4	-0.15487581
8	0x3e0e91c0	0.13922787
9	0xbd826733	-0.0636734

weight f4 [4, 10]
0	0x3b64078a	0.0034794533
1	0x3bad0519	0.0052801487
2	0x3ec2b3ab	0.380277
3	0xbeb30d89	-0.34971264
4	0xbdaf1dd6	-0.08550613
5	0x3e8328b0	0.2561698
6	0xbca3a4e2	-0.019976083
7	0x3ea5b20d	0.32362404
8	0xbea554f9	-0.32291391
9	0xbecc27ca	-0.39874107
10	0x3ea52767	0.32256624
11	0xbd844840	-0.06459093
12	0x3d89881e	0.067154154
13	0xbcec654d	-0.028856898
14	0xbec4fefa	-0.38475782
15	0xbe875b69	-0.26436928
16	0xbeaa370a	-0.33245116
17	0xbe85a485	-0.2610208
18	0xbe26d45c	-0.16291946
19	0x3dc6b2b0	0.09702051
20	0xbedefe2b	-0.4355329
21	0x3f0321d0	0.5122347
22	0xbf4eb86d	-0.8075016
23	0xbd17a1b3	-0.037019443
24	0x3e99f961	0.30073074
25	0x3de0d8ed	0.10978875
26	0x3e50adf7	0.20378862
27	0xbd86e690	-0.06586945
28	0xbdc4a3aa	-0.09601529
29	0x3ee10b33	0.43953857
30	0xbf8b4a8b	-1.0882124
31	0xbcfd6d92	-0.030936036
32	0xbe246f26	-0.16058025
33	0xbe7fc810	-0.24978662
34	0x3f08bd5d	0.53413945
35	0xbe8e3ccd	-0.27780762
36	0x3eecacfd	0.4622573
37	0xbe8cba5d	-0.27485934
38	0xbde2c169	-0.11072046
39	0xbf0b19ca	-0.54336226

bias f4 [4]
0	0x3e2e3c19	0.17015113
1	0x3eb5461e	0.35405058
2	0xbdd1cb35	-0.10243837
3	0x3e9f1d79	0.31077173
